checkpoints/MLPmodel.pth (torch, 51624 bytes, 8 tensors)

W1 f8 [17, 50]
00000000: 49c2 1d91 ccba 96c2 4ae4 d510 e562 93bf
00000010: 55c6 fef5 4c04 55c0 5ac2 2197 d405 a6bf
00000020: e49b 3922 73b2 5bc0 1a17 2029 1ced abbf
00000030: f19c b530 bb1c c6bf a57c 8347 a713 a6c2
00000040: 0836 67b2 f7f3 84c2 95ad bffe b64c 9ac2
00000050: 479f 964d 30fa d0bf 5cfe 4d58 4779 a7c2
00000060: 5d72 aeb5 9aaa 9ec2 b17a 6a92 68f5 9dc2
00000070: 06b9 4a46 b605 86c2 e02d 29ff 4aa0 adc2
00000080: 03f9 905d a7b9 96c2 9b23 cde4 6b20 59c0
00000090: fd0a 9d22 70c2 74c0 c04e c1ed 2900 76c0
000000a0: a25d 4ea5 19a6 d0bf 060f 3dc8 4bee 83bf
000000b0: 3595 ed20 d3ac 63c0 e131 659f a458 c3bf
000000c0: 9a6e feb5 c2a4 68c2 1f16 712c f4cf 5fc0
000000d0: 61bc 9e4b 9917 a2bf f62e d69d 9d52 4bc0
000000e0: 8ff7 b460 83ab a1bf 7cb6 89d5 7718 65c0
000000f0: d539 1732 4345 75c2 dfc1 c736 17df 70c0
00000100: 44c7 a5c3 febc 56c0 5c7f 5580 9b0a 1dc0
00000110: 0460 0cc9 e14f 87c2 604a 21d7 e357 a8bf
00000120: 73b2 5861 b496 7ebf 4ad0 cbf1 07d4 5ac0
00000130: 7d36 5e4b 53c6 a4c2 98c6 531b 32aa c1bf
00000140: 8dda a120 06d2 8cc2 d9a0 6092 e578 3fc0
00000150: 1045 5c46 b3bb a6bf f7d3 4d6a d842 9dbf
00000160: f43a a68d 755b 1ec0 e0f7 4953 4c56 71c2
00000170: bbfc debf 8156 c7bf 963a ca88 33d8 b8bf
00000180: 84a4 4a02 a22f 62c0 a8a9 c213 344c 69c0
00000190: 1f48 94a9 28d5 57c1 66bc c636 f0cf b8bf
000001a0: ba20 a217 116a aa3f 13c7 aef9 bec2 c0bf
000001b0: 542d 2d88 aa0f c3bf 380a d127 059b 973f
000001c0: c76e 2db9 86d8 c5bf 92dd 7dfe e625 67c1
000001d0: 601d 1fb7 41f8 45c1 e29b 3c3d 6c93 5bc1
000001e0: 088c 65ef 3923 c6bf aa63 4daa e19c 68c1
000001f0: 7b6e c47b c713 60c1 c387 a2e2 9169 5fc1
00000200: 8b4d 87e2 4817 47c1 986b 16f8 5210 6fc1
00000210: 88a3 1c39 f5d3 57c1 7efe e4db bc4c aa3f
00000220: a6d6 d9ab 01b1 aebf b2f8 523d 8735 a0bf
00000230: 7742 629b a638 b6bf 1835 95e1 afdc b43f
00000240: 0959 3ef1 9b42 c13f 5022 84ad cdd4 c4bf
00000250: cfcb 261f e5d6 29c1 cca0 25e3 d9ab d33f
00000260: 3744 77a4 a845 a13f 5417 b9c8 9d61 c33f
00000270: 1443 8aaa 9caf c03f 0414 516c 7fef a53f
00000280: cd77 2202 7f4d 36c1 ad4b 9e0d 836c b8bf
00000290: 172c fe98 7d94 c2bf 5425 5096 17c6 d1bf
000002a0: b389 eaec 7971 48c1 9172 df1b a35c afbf
000002b0: cf3b 7ce4 e0a3 b4bf 0d5e d627 fe35 b13f
000002c0: 4f41 4245 66c8 65c1 fe89 4925 b7bf a43f
000002d0: 2eb6 36c9 0b38 4ec1 9965 3340 1a0d c63f
000002e0: 17d5 42ae 7340 a8bf 970a 2a82 78d2 a1bf
000002f0: 09b8 e44d eafc b5bf 52f4 4a3a ab2d 32c1
00000300: d556 6670 a586 d03f a2b4 d80f 9c7c b53f
00000310: 1abe 5306 df5f cabf e6a5 e3cc 9f82 b23f
00000320: bef2 9d24 b48d c9c0 76e1 9bec 69d0 a83f
00000330: b04b 9b85 eddc c73f b4a4 adb3 b121 acbf
00000340: 671e f65f d048 b3bf 537a 45ab 236f bd3f
00000350: a323 e7b8 c2e2 b73f 310a 277d ced1 d8c0
00000360: a550 73e5 5a8e b7c0 61ee c6b3 2191 cdc0
00000370: da57 ae78 93f6 9e3f f764 788b ce63 dac0
00000380: e604 19b0 fb3c d1c0 f010 09a4 1cd7 d0c0
00000390: 56a8 4207 38c2 b8c0 5673 ca74 43a7 e0c0
000003a0: 1631 b2a6 568c c9c0 160d d9a2 c336 a33f
000003b0: d63e ec98 8160 9cbf fb26 c057 5f74 993f
000003c0: 1eab 9f2b a0dc bf3f b509 1c0e 08ea a0bf
000003d0: 01e3 e760 2ba4 b1bf 48ba 05dd 4de1 903f
000003e0: 5ee4 9500 c6b4 9bc0 8e7d 5355 00c8 893f
000003f0: 2a82 78f4 1d00 c03f 8107 c4d0 730b 9bbf
00000400: c145 cbe6 6b3e b6bf b131 c2a3 0db9 bdbf
00000410: 10bb 1b3d e9e9 a7c0 b37a 3aa7 4de9 aebf
00000420: 29fa bae0 6445 c0bf 773e bb00 3688 a1bf
00000430: e874 7106 6135 bac0 97c4 b6ce 9413 c03f
00000440: 83df f2a2 0833 a43f c0ab 07cd 4e08 cabf
00000450: 5d82 c2d6 0d5b d7c0 525a c33a 91c5 b63f
00000460: ab28 392e 4733 c0c0 a41d 9f75 0edf c5bf
00000470: 1a65 c56a b15d 9fbf 60e1 2cfc a452 7d3f
00000480: f424 ec56 2157 c33f 290e 42a4 627d a3c0
00000490: 36f1 ff06 2c87 c5bf 52a5 bed0 95fa a7bf
000004a0: 2aea f28a a419 be3f 1b30 10f2 cb6d 81bf
000004b0: 15a7 f872 de7f b5c0 852d 7a0a 18f6 b03f
000004c0: 1376 30f5 6460 8c3f 9bf0 96fc f5b9 a33f
000004d0: ec66 9aba 8bcb 9f3f 460a d709 7f09 ae3f
000004e0: 8dc0 725b aecb cdbf 6043 96fd a3e1 c4c0
000004f0: 4124 2738 48d1 a3c0 2e8f f102 2ae0 b8c0
00000500: 78d0 ff09 c28b c43f ece5 806a d033 c6c0
00000510: 8505 cda7 a101 bdc0 be0b ecf0 3e56 bcc0
00000520: c3f8 4591 6ed4 a4c0 ed7f d660 a705 ccc0
00000530: 4b42 3389 8a7e b5c0 4432 219a 6d1a 89bf
00000540: 61fb d83d 16e4 ad3f c2f9 af41 40d6 ccbf
00000550: 30f7 2919 e4de c03f 16f6 a2bd 3543 ad3f
00000560: 3ef0 b1af 19b7 c53f 5635 2c8d 40f8 a63f
00000570: f72b 648a f84e 87c0 4301 5b5d b950 ad3f
00000580: 07d2 f6b0 015b 9bbf 5bd0 7527 5dd5 aa3f
00000590: b686 bfa0 30f4 b03f 5a7b dc7d f622 9a3f
000005a0: e7e1 333b 331e 94c0 9290 6ff6 97ef 9fbf
000005b0: 2bbb 7317 0004 893f 3210 bc47 f20e 9fbf
000005c0: d468 9676 d70c a6c0 dc4d a2b4 d168 a8bf
000005d0: ce3d f0e3 0293 c03f 6821 f820 b762 8abf
000005e0: 82c9 d8c1 57a6 c3c0 6844 5b53 127b c9bf
000005f0: 2c0b 64a3 9842 abc0 07cf c870 be99 af3f
00000600: 76b6 b8c8 f0fc 96bf aa11 556b 81dd a73f
00000610: 207e 67ec e183 a93f 774b 9871 5165 90c0
00000620: 9b31 9904 c670 c9bf 9bfe 3732 e1a6 a5bf
00000630: d167 6bc4 1235 cc3f b030 3595 97e3 aebf
00000640: 77de 6501 9498 c0c0 cc49 54cf a516 953f
00000650: d1f9 8152 085c 97bf 6000 9690 9b65 c9bf
00000660: 0012 cd2c e0a5 893f 6027 b493 3ec6 a4bf
00000670: 67e7 07b3 ea9f 9e3f b590 c405 761e d0c0
00000680: 341e a699 9898 aec0 2b72 5518 d033 c3c0
00000690: 16d9 5662 63ef cc3f 0703 891f 9423 d1c0
000006a0: 7e9c 9385 e763 c6c0 aed8 ec65 a3df c5c0
000006b0: bb4b eeac 3214 b0c0 5583 8789 85a1 d5c0
000006c0: 4dcd 5023 b397 c0c0 434b 45ae 976e b43f
000006d0: 0ae0 21fe c588 b3bf af76 022a f213 b0bf
000006e0: af8f df94 29a7 acbf ac13 a8f2 3283 b9bf
000006f0: 33e6 4d8b a8f4 873f ef97 9905 3eec ac3f
00000700: 697e e698 6cfe 91c0 f3a0 aea7 e240 c13f
00000710: 9b0a effb efbc b9bf 4421 eb84 cf5f b2bf
00000720: 3e67 c251 9961 c63f 3f4e b616 8971 c63f
00000730: ddb7 e44f 2310 9fc0 42f9 5c0f 7d85 bdbf
00000740: cf7b ae78 1e43 bc3f 06ac 5951 5e07 b13f
00000750: 89f4 3aec 3d05 b1c0 989d b870 820b cbbf
00000760: 0277 99b1 ac20 afbf bfac 65d8 c738 9cbf
00000770: 8191 95b5 1756 cec0 0abf 42be 4e5c 9c3f
00000780: 5826 1cc6 030b b5c0 e827 3946 4ebc bd3f
00000790: 9afa b1e1 5c1c b13f b082 a490 35b1 c0bf
000007a0: 1b64 6761 e558 c83f 6b60 6abd f950 99c0
000007b0: d127 dbc0 d0c0 853f 7704 27a3 4a6f d23f
000007c0: 4737 6dd4 ff57 cabf d8f8 477c ad98 503f
000007d0: 85e4 12c7 897c dbc0 59e1 44d0 67d7 7cbf
000007e0: 2957 f694 b247 b1bf 7f9a 8c16 3a92 ca3f
000007f0: 7a5e df9e 380d b53f e74f 7a8f 2f2d 9ebf
-6247887947632.571 -0.01893194117790057 -84.06719732170434 -0.04301323265906794 -110.78827720285295 -0.05454338075655425 -0.17275180700674 -12136833335742.322
-2879758159078.754 -7229197496299.3955 -0.2652703054140954 -12904827725567.18 -8429522217884.591 -8234964654750.673 -3026723588439.128 -16287145104534.938
-6246658171966.253 -100.50658531220544 -332.15237675995724 -352.010236506565 -0.2601379503552953 -0.009731857345861804 -157.4007725372591 -0.15114267142270335
-846747512819.4563 -127.24927817386241 -0.035336294632877914 -54.64543507536102 -0.03451166682724171 -168.76462819001233 -1461701517683.6145 -269.94316747694205
-90.95304957570357 -7.260358815401414 -3203982238092.002 -0.04754554749583373 -0.007467941866292282 -107.31298489478755 -11421016764187.244 -0.1380064614709695
-3961046438971.319 -31.47225298747148 -0.04440078958408311 -0.028575307358057214 -7.589315617819683 -1191396586655.4922 -0.18232747906401933 -0.09704897012327715
-145.48852648333207 -202.38135707874358 -6247586.649675398 -0.09692288720428763 0.0515904752110727 -0.13094317618884385 -0.1489155926632103 0.023052292399606794
-0.1706703571497796 -12136247.952864442 -2879619.4306370467 -7228848.956824275 -0.17295002164163997 -12904205.321946938 -8429115.867728462 -8234567.541170063
-3026577.769754117 -16286359.752736852 -6246356.892372973 0.05136671242007383 -0.05994420264043514 -0.031658388362744275 -0.08680192273664909 0.08149241692918385
0.1348452499339106 -0.16274424526661102 -846706.560842866 0.30736396009752975 0.03373457915916627 0.15141651440552073 0.13035925223496092 0.042842847797636835
-1461631.0083384395 -0.09540576059798296 -0.1451565739665461 -0.2777155845547743 -3203827.8509075283 -0.061253640320250054 -0.08062558725599377 0.06723011467544655
-11420466.164337782 0.040525172521274286 -3960855.5719821667 0.17227485785296606 -0.04736672880373243 -0.03480888928335906 -0.08589043046660562 -1191339.227706213
0.2582181546834879 0.08393264185788721 -0.20605075653973942 0.07230566742114028 -13083.407367461707 0.048465070851253 0.1864296820045559 -0.05494456594790034
-0.07532980292136814 0.11497710162573442 0.09330384268026974 -25415.226388702347 -6030.355063636006 -15138.263298860928 0.030237488022599603 -27023.22726259098
-17651.932623152527 -17244.447511927166 -6338.218860784624 -34106.108006692186 -13080.67696216008 0.03752719271553866 -0.027711892088574462 0.024857988100882782
0.12446023049384933 -0.033035518381456276 -0.06891127696861689 0.016484467139372933 -1773.1933616085657 0.012588503459879854 0.12500357090995468 -0.026410874955224543
-0.08688997635478925 -0.11610493896495801 -3060.955544344506 -0.06037371317255715 -0.12711773846781796 -0.03424233206680765 -6709.379004565279 0.12559757321790663
0.03945185650940088 -0.20337853442410214 -23916.216232898052 0.08895213780065461 -8294.55609812246 -0.17086964362372925 -0.030630848066128903 0.0071588940361880515
0.15109650367984495 -2494.692659439305 -0.16818762151513916 -0.04683368847993087 0.11757877723986412 -0.008510201763805061 -5503.868941822807 0.06625509506027612
0.013855732662757558 0.03852814396256684 0.03104990316805971 0.058666200591251313 -0.23277835335966693 -10691.281176360033 -2536.641053412605 -6368.164107415634
0.160515074617823 -11367.628250229136 -7425.631466688011 -7254.245863678805 -2666.215952097527 -14347.307642757858 -5502.5411560093735 -0.012257438913502068
0.05838078980422413 -0.2252884217013627 0.1318020937796347 0.05715339603328233 0.1696502788435072 0.04486276362704682 -745.8713577104489 0.057256500860150904
-0.026714350153001856 0.05240908724491141 0.06622604298129428 0.025523997718774318 -1287.5500305277471 -0.031187414566276113 0.012214661327076456 -0.03033045351823222
-2822.4208266261066 -0.047674706745194334 0.12948642854506293 -0.012883597081796608 -10060.685603235619 -0.19906834669248785 -3489.2981215728414 0.06171984793436818
-0.02244926667315502 0.0466118281861186 0.04983430872720995 -1049.3295348926601 -0.19875407433063405 -0.0422888158609542 0.22036966887281875 -0.06033014007934534
-8497.15629266131 0.020594206599591477 -0.02281201366030833 -0.19841332015858182 0.012523414008350109 -0.04057498505615231 0.02990690915792218 -16505.84410204059
-3916.298047248065 -9831.625742607828 0.22605554868432226 -17550.31442475601 -11463.808763934529 -11199.276548009682 -4116.197951215257 -22150.086519125227
-8495.399515247578 0.0798125076737906 -0.07630574659731351 -0.06280435109735082 -0.05596284811306817 -0.09965818809730703 0.011697117568235082 0.05648988550528588
-1151.6060520186095 0.13479264438252123 -0.10053920651174979 -0.0717744540699004 0.17485348217160807 0.17533982857695382 -1988.034484456751 -0.11531812310292813
0.11039915510489993 0.0665186833008847 -4357.241885838223 -0.2112887430568946 -0.06079616229975039 -0.027560350973925504 -15532.18522901158 0.027695875513642533
-5387.014741668092 0.11615456785617051 0.06683903226983504 -0.13040799677493942 0.1902128911595192 -1620.2438866254186 0.010621672521114707 0.2880426972661278
-0.20581052658456597 0.0010129636949610023 -28146.152775500454 -0.0070413642136418425 -0.06750026833318813 0.20758749104534854 0.08223298910831459 -0.029469245083035302

b1 f8 [50]
00000000: d49d cbb4 a523 a8c0 09c5 9b70 c2ae ad3f
00000010: 1a63 fb0a c036 c6bf b8a6 db59 4d28 b0bf
00000020: 591a be8d 77c7 c13f 235e a9dc c29a c3bf
00000030: 3559 7454 1ff0 d3bf d0f4 f72a 0672 b7c0
00000040: 3b36 09f5 9f3f 96c0 3a74 7712 2cee abc0
00000050: 091b 8c1f 0802 babf 7453 66be cbed b8c0
00000060: 5a8c 8bed cc48 b0c0 677b fd71 50d1 afc0
00000070: 9c9b 7398 8b63 97c0 be13 7524 6676 bfc0
00000080: f24a 7eb6 5b22 a8c0 a6fb 3a83 0a29 a5bf
00000090: 06ae 3c3b 65bc b6bf ddcf b2db 62fe a03f
000000a0: db5e 55f9 ccec b73f 0b5a e9cf 5f05 cdbf
000000b0: 6908 37e9 d3b7 bfbf f753 b9b4 dd37 a13f
000000c0: 1b55 c370 e62d 7ac0 734d 9677 05e1 a7bf
000000d0: 1ff1 ca72 5ed1 d13f df40 2ba3 2c6e 9ebf
000000e0: 0b72 8c61 41b6 b03f a71b 0aaf 9694 c73f
000000f0: 00b6 fd46 ad97 86c0 fbcd 3bd7 8897 ae3f
00000100: 22d8 9920 03f7 ba3f 6b48 f049 33a6 b0bf
00000110: 615e 61bb 78c1 98c0 0625 00d4 d2fc b83f
00000120: e19c e70f aa0e cb3f d63b f31b 8fe8 b53f
00000130: fa7c 846f 2010 b6c0 91b2 778a 2136 77bf
00000140: 5dc7 6c45 e49b 9ec0 ae59 536d 4ff6 bfbf
00000150: d552 4675 e663 d0bf 7694 a090 e7d2 a93f
00000160: 36b3 89aa 9af8 8c3f d2ba e660 d96a 82c0
00000170: 7de8 2838 dd9b c93f 6ee2 d84b 1981 bd3f
00000180: 64c6 b4de e26b c1bf ed32 e78e 5673 b13f
-3089.8236449842607 0.0579739344083326 -0.17354584251622712 -0.06311496204184663 0.13889974995636825 -0.15316043638698415 -0.31153090713032167 -6002.024093148488
-1423.9062081755972 -3575.0860783891085 -0.10159350176045846 -6381.795874019026 -4168.800499650732 -4072.6571196759355 -1496.8863237441756 -8054.398993794746
-3089.179126688622 -0.04132874347623465 -0.08881218620506823 0.03319081241480124 0.0934570416187585 -0.22672650958948312 -0.12389873927807717 0.03362934905150177
-418.8687598829435 -0.046638651702916166 0.2784038659117573 -0.029717156847994693 0.06528099662359226 0.18422206446504427 -722.9596080609481 0.05974986674655366
0.10533160730287297 -0.06503601603643154 -1584.3679022992949 0.09760778117938082 0.2113850190791942 0.08557981903435005 -5648.126701622497 -0.005666857737634105
-1958.9729210850412 -0.12485214633065908 -0.2560974259625202 0.050437199024863696 0.014146049813655286 -589.3561418557895 0.20006909601380932 0.11525114156473545
-0.136104925864447 0.06816617001386378

W2 f8 [50, 50]
00000000: 0320 0682 747b 51c0 9e39 45b3 7282 85c2
00000010: 35aa 4eb7 80ac 20c0 89e4 b6da 352f 47c0
00000020: 6a6c 3d97 15d3 5ec0 2546 8de7 2a57 993f
00000030: af39 baac ea75 b0bf 3a35 3ec2 4b2a 22c0
00000040: 4f76 68b6 962b 86bf e395 b247 a430 58c0
00000050: 8cee 372f b2ae 58c2 da2d 2f09 574a 8abf
00000060: 4cff 1048 f15e 41c0 dc59 1070 a869 91c2
00000070: ef88 2902 53ef 5bc0 964f 3ef7 1edc 883f
00000080: 79ab a2de 724f 2bc2 ac84 85c6 8add a1bf
00000090: ee16 e860 605e 5b3f 87d9 577d 2f86 f341
000000a0: 70d5 32be db88 683f 080a 8e8e ad06 95bf
000000b0: 996b a561 3a25 8fbf 8dff 8689 510b 84bf
000000c0: fca5 701a b567 60bf 7ec7 4257 c7e4 92c2
000000d0: f422 29ef 618a 90c2 2475 74b8 e916 babf
000000e0: ed30 39ce c920 abbf 0042 6b93 31da 82c2
000000f0: feb2 e06b b90c a9bf 0181 ca1b 78de a5bf
00000100: 9e5d 0e31 51fa a1bf 7120 4e11 5c31 98c2
00000110: 100c 687c 251d 6dc2 4456 eeae 107c d341
00000120: b8ee 1e22 cf25 74bf d17a e84a 67c9 51c0
00000130: dd73 3ff0 eb08 3ec0 7bd5 65ac 8bc2 b03f
00000140: 160e 7d5b e30d 9b3f ae8e 659c 357c e941
00000150: e7f7 6b45 a707 96c2 b10b 04f9 85f6 8dbf
00000160: d511 8114 69f1 59c2 a184 0d44 3870 8e41
00000170: f82f 392d 0872 51c0 bf45 a6ff 8363 a4bf
00000180: 6ef5 6aa6 bfe5 50c0 a09c 48f6 c093 dec1
00000190: e3cb d4b5 d96f a0bf 076c 2565 f0a8 ac3f
000001a0: 5835 ac2f b00a 8d3f 33db e5ed 7c05 96bf
000001b0: 2fd8 7d89 ab84 953f ea5a ddb5 7bee 743f
000001c0: 713d 231d 5ad7 b63f d97c 00d4 3229 a43f
000001d0: 2a1d ab46 25e6 ad3f 6758 d734 7a3b 9f3f
000001e0: 9c42 ead2 d947 b13f 881e 5abc b46e a4bf
000001f0: 0a66 7d62 cc03 9a3f e76e 286d cd77 693f
00000200: f7cc fb68 fe38 9a3f fc9e 60b6 82e9 983f
00000210: ab1f 08de b41e b03f cedf 9265 6211 a03f
00000220: fd21 e401 8aa1 b0bf f07f 8c5f dd7f 8b3f
00000230: 6a9e 44af 492a a4bf 188c 2354 57ab b33f
00000240: 49fe b9eb 7ac3 9fbf fe15 f4d7 8ffb a93f
00000250: b9b0 8563 0385 b0bf 5459 0d22 616e a3bf
00000260: 65d9 4cd4 2a66 8abf 80aa f6f1 2fc1 77bf
00000270: d203 088c e5ea 9f3f a73a 9de9 e580 a5bf
00000280: 3572 6b03 cf8b a5bf 6d47 5488 e7ac 883f
00000290: 9302 9f73 ec6b b13f 2ce7 a9a7 d773 77bf
000002a0: 8612 bd5b cd0b 903f d32e d4ff 34e2 a0bf
000002b0: 8d57 c545 e29d 98bf 4735 356d f2ef 683f
000002c0: 6ff3 8533 79eb 81bf 33a9 1473 d89f 9ebf
000002d0: f1b3 7a0d 01c7 973f 6fde 4ae1 e5f1 85bf
000002e0: d2c4 6a6e 9397 b53f 32ac f5b8 0681 ad3f
000002f0: 62ad 82d5 4b52 80bf 5acd c919 6749 b6bf
00000300: 7e54 4d30 f35f 98bf 8975 6512 567d 8abf
00000310: bfef 5413 1831 a23f 6965 9bad 318a 97bf
00000320: fe7e 97b9 97a3 4dc0 b4b6 905c 492a 4d40
00000330: 90c5 5caa c23b 1cc0 3585 51d5 c7a7 43c0
00000340: bd86 69b7 461f 5ac0 b6ae 1a8b a960 a8bf
00000350: d2b5 a47e 96ec a2bf 374e 6d87 46ce 1ec0
00000360: 2e31 7b6a c2cd a0bf 6532 ca1c eb7e 54c0
00000370: a74d e987 5a7a 3840 89fe d048 37c4 94bf
00000380: cfe0 5776 f076 3dc0 6e29 a88c 1905 0640
00000390: d045 7c2d 46ae 57c0 3f1c b82d 0b7a a1bf
000003a0: 862b 3b74 a0c5 4540 8017 d195 5f51 7a3f
000003b0: edb1 b6b8 c490 933f 8337 f05f a5be b23f
000003c0: acc4 aa33 c88e 8bbf 9558 5f8e 5603 a6bf
000003d0: d747 27bf f9cf a33f cebc dde8 2e8d b13f
000003e0: 7963 c48c a337 b13f 90db b3bd bfc3 5440
000003f0: 3928 536e ba04 5440 d06d 8e5d 2013 aebf
00000400: 5a19 57eb da97 883f 4020 70a3 8d6c 5a40
00000410: 09a3 4062 c12c 5e3f 3555 0ed9 3805 b13f
00000420: d534 5d12 e96e a5bf 0374 fe2e aa24 0940
00000430: 2109 33e6 6148 5340 f7a9 589e e07f 97bf
00000440: f6f8 eea7 3b4a a03f 6e50 18ce 1f20 4ec0
00000450: 6d7b efbf e963 39c0 d1f9 2f8a ef26 b2bf
00000460: f090 c95a 9303 83bf 5b06 0cc3 e48c 6b3f
00000470: 79c6 796d 25cd 1040 97d7 1a3d f094 a83f
00000480: 398a 3cf5 6719 4e40 b137 d0a8 815e 93bf
00000490: 1d5f 9bed 028d 4dc0 27d7 2b40 999d 933f
000004a0: d94c 0d37 2da5 4cc0 d1c1 0934 f3ad 6abf
000004b0: c925 6b0b 3aa3 9bbf e1be 368a 5fae 99bf
000004c0: c3ff b1e5 28da 9b3f c52c 5dd0 3384 9e3f
000004d0: f125 b2bc dc4e a5bf d3ef a6b3 6a77 a83f
000004e0: 3a5b 48ba 5251 7cbf 5654 262e 359a 96bf
000004f0: 7e53 a7da 8609 a13f bc01 9274 6e52 9cbf
00000500: ca61 363f 0321 a23f ae45 3af0 29c3 b03f
00000510: 40f2 b354 f78c aabf 2f38 6701 02c9 81bf
00000520: e6b9 077b 59ea 90bf d69f e9e3 d3a9 a73f
00000530: 4758 c134 e1a7 a83f 9850 d7d0 43e9 b1bf
00000540: 1c7f acb7 bef7 a2bf 1fd6 63f3 846a a3bf
00000550: 6596 bf49 ffff 60bf 3269 5203 f034 af3f
00000560: 493d 0d99 83cf a63f 3e2f 31ad 2319 9b3f
00000570: 16bd dbed 9aca a3bf 7e3b e32a 8e06 06bf
00000580: 1301 88d1 ae98 a1bf cf6f 4bf9 f8bf 95bf
00000590: c578 b8e1 2ef1 ad3f 2f18 f8bf 5aed 963f
000005a0: 6c7e 2151 4fc8 af3f d53f cf16 f093 9dbf
000005b0: cb68 3cf2 c288 a03f d112 2bdb 0fd6 8fbf
000005c0: 24ea 666c b9a5 9bbf 353d a7df c4d8 a5bf
000005d0: 8456 b60a 3264 a53f 0126 2f32 4a54 853f
000005e0: b106 73fc 07e1 763f d8ce da51 b214 723f
000005f0: 7210 0346 6d0f c23f 8572 13b0 1fa3 833f
00000600: ac45 07f2 afff a1bf a866 a43d 7730 b33f
00000610: 66ad 3cbd b066 a2bf e813 a50d 71d1 ab3f
00000620: d327 1a04 64a6 09bf 7c63 5b8f 8bea 8ebf
00000630: bae5 054c 23e9 a2bf 1b37 a807 21d7 adbf
00000640: 3f55 1421 024c 35c0 e57d 7a57 e606 3540
00000650: d062 0ce6 7b2b 04c0 79c9 2e8e 1a56 2cc0
00000660: 8c89 f4fa 2acf 42c0 a48f 8996 8516 b03f
00000670: 853e 1260 66bb 70bf 39bd 7f5a 64ec 05c0
00000680: 65a4 b190 2c25 883f 480d fd87 aa83 3dc0
00000690: b53b 85e8 e782 2140 9dac ca6e 5e64 90bf
000006a0: 7d45 b201 3f44 25c0 507e af91 43fe ee3f
000006b0: 3533 2ae3 8500 41c0 d590 d019 6df3 a93f
000006c0: e739 7b2b c826 2f40 815e 235b 23ae 983f
000006d0: 56ce bc9b 18b8 9abf dbed 670f 0225 9abf
000006e0: 9850 dc97 34da a33f 355b ba95 47ad 90bf
000006f0: c474 42db adf3 a23f 3168 c5a7 e070 8a3f
00000700: 8418 871e a056 973f d528 9276 0fdf 3d40
00000710: 98fe e99e 42b0 3c40 a141 5630 efe2 a13f
00000720: c4d0 4f36 4d7c acbf a888 5714 c701 4340
00000730: c9d6 147f 4b60 8abf 0eaf 62f9 0f7e 86bf
00000740: fcc8 58d7 d66e a93f 9f4b 0b60 7473 f13f
00000750: 1a7a 98de 9ac9 3b40 2ad7 43c0 100e a73f
00000760: 2717 6232 ef16 98bf b0a7 1282 3cb5 35c0
00000770: fa6b ab2f 7f4d 22c0 7157 49dc 8da9 83bf
00000780: 0383 d99c 3350 8ebf 81c8 ca7b 3265 a93f
00000790: e8af 252c bf01 f73f 9352 2278 9d35 b03f
000007a0: b7f5 9861 b99d 3540 5a55 06f9 880d a1bf
000007b0: da66 1944 082f 35c0 b51a a0f9 5fd8 aabf
000007c0: d943 f6e6 e88a 34c0 c590 52ab 78a4 aebf
000007d0: 4306 8150 8568 a23f 171a 1f15 9af3 a23f
000007e0: 7aa3 8db0 68f1 9cbf e3bd 62a1 b3e9 99bf
000007f0: 8845 c5e1 a861 9a3f 88e5 cc75 3493 9abf
-69.92898607824468 -2956251785383.202 -8.336919525482793 -46.368831004431804 -123.29819279669178 0.024746580488971177 -0.0642992660234316 -9.082609243482342
-0.01082532638707359 -96.76002685966482 -424040512735.7273 -0.012837104766638175 -34.741738327311936 -4786373788694.465 -111.7394414334883 0.012138597412366708
-58648522577.33491 -0.034893357022846544 0.0016704503246968666 5240977365.490607 0.002994946656680035 -0.020533286882264107 -0.01520772562496635 -0.009787213334561585
-0.00200257655844349 -5193451557041.873 -4546633648712.738 -0.10191212418836365 -0.05298452989936373 -2591042989416.25 -0.04892520372263752 -0.042712930099925835
-0.03511289333180943 -6650069275528.11 -1000344380224.377 1307591355.7240152 -0.004918870081322239 -71.14692948058224 -30.03485013531814 0.06546853026323689
0.026420166453375492 3420564707.173667 -6055531731709.976 -0.014630362188204989 -445697511940.2786 63833864.506600626 -69.78174906334596 -0.03982174392434556
-67.58982239194094 -2051998681.1345596 -0.032103351064868745 0.0559764026135881 0.01418054242597104 -0.02150531007779506 0.021013908640689912 0.005110247844490637
0.08922351085060655 0.039376819972170636 0.058396496655001975 0.03050032565609975 0.06750260733884733 -0.039907119743529285 0.025405114661543528 0.003108884070810325
0.02560803905266781 0.02432827222960919 0.06296854420372593 0.03138263215936342 -0.06496489092035769 0.013427476385515974 -0.03938513054373234 0.07683320812388705
-0.03101913512955282 0.0507473898997368 -0.06452962093107119 -0.03795150318790044 -0.012890181163680745 -0.005799472127743344 0.03116949717696455 -0.04199903942809629
-0.04208228031868481 0.012048539016663995 0.06805303404599732 -0.0057257102986285995 0.015670021747853834 -0.03297582266722334 -0.024039779194331912 0.0030441031355283063
-0.008749911198486974 -0.029906637214631004 0.02322007794161957 -0.010715290010337967 0.08434411473969597 0.057625017240603774 -0.007969467595407568 -0.08705753688427845
-0.02380352003395502 -0.012934372364436413 0.03553080783828432 -0.022988105984813077 -59.278067778561294 58.330363817845324 -7.0583597773669595 -39.310785927586416
-104.48869118981652 -0.047612474661347035 -0.03696127220096525 -7.701440921827774 -0.03281981992549486 -81.98310012574946 24.477943891962834 -0.020279754466399545
-29.46460666318381 2.7524901379412574 -94.72303330551154 -0.034134244280771935 43.54395916833077 0.006425259952328122 0.01910693528559364 0.07322152702565003
-0.013455928875688215 -0.04299421775765314 0.038696102699432515 0.0685605352898506 0.06725523173044036 83.0585779434607 80.0738788425523 -0.058739673061804276
0.012008390719426987 105.6961449236851 0.0018417252076778376 0.06648593234270524 -0.04186180447741498 3.1429027243998475 77.1309752939601 -0.022948751129812064
0.03181635308236423 -60.250970613357694 -25.390285488097494 -0.07090661166873892 -0.009284163673506346 0.003363081741895963 4.200338087613653 0.048011310061539074
60.19848504501392 -0.018915201118992978 -59.10165186010838 0.019155878583624244 -57.29044235371993 -0.003256773954767513 -0.02698984808629293 -0.025079243479637085
0.027199400920380656 0.02980118712666237 -0.04161729625145572 0.047786077909648526 -0.006913493304202595 -0.02207263082671703 0.03327580851661248 -0.027658201088799336
0.03540811678539375 0.06547796358997601 -0.05185673626872189 -0.008684173267195032 -0.01651897252480152 0.04621755749832317 0.04815582055077577 -0.06996558998736402
-0.03704639427291864 -0.03792205306119122 -0.0020751939864450003 0.06095075645972016 0.04455195658976636 0.026463086553391017 -0.03865512994331703 -4.2010511025140037e-05
-0.03436800296549527 -0.02124012967657035 0.05848070626619654 0.022389810530533957 0.06207511773459093 -0.028884650604424984 0.032293407506772086 -0.015545009494766589
-0.02699937557347644 -0.04266944151060629 0.041780055816315304 0.010414676338672104 0.005585700221844612 0.004414269029144179 0.14109579008629997 0.00958847766963201
-0.03515386418770147 0.07495827917991937 -0.03593971548101642 0.05433228770792892 -4.892342304881028e-05 -0.015095796883018535 -0.03693495085731109 -0.05828192919226024
-21.296907489265546 21.02695223560831 -2.521232411625853 -14.168171351634316 -37.61849915447519 0.06284365582683776 -0.0040849684747993375 -2.7404257841332336
0.011789653936107489 -29.5143208496859 8.755675569785902 -0.016007876884640216 -10.633293202411318 0.9685380788250288 -34.00408591805027 0.05068531932946178
15.575745924751528 0.024101784169799693 -0.026092895989860608 -0.025531799497896173 0.038774150407477836 -0.016286009324711876 0.037015374198043044 0.012910609359710975
0.022791387427581813 29.87132969921443 28.68851655209309 0.03493449654627346 -0.055635846023422114 38.013887922993774 -0.012878980460850358 -0.010982632444516163
0.049673761165097446 1.0906871558879414 27.787519371248074 0.045029185743187775 -0.02352498765005531 -21.707954530291033 -9.151360978770743 -0.00960074261199015
-0.014801409935161219 0.04960019837507535 1.4379264568806267 0.06331810172043566 21.61610994324084 -0.03330638923504621 -21.183719879342654 -0.05243205949959898
-20.542616305468844 -0.059848566926378 0.03595368011202684 0.037014784887606726 -0.02826465203853299 -0.025305563664629004 0.025763167171424267 -0.025952167215313376

b2 f8 [50]
00000000: 8522 5219 78c5 4bc2 9f32 3ecc 89f0 15c0
00000010: eae9 a03c 1a91 59c2 9a46 a37b 8289 a5bf
00000020: 3abb 1328 d91e 43bf 6342 db00 8920 90c0
00000030: c8f0 9a30 d2cc 9fbf 57f1 cc4b d823 9bbf
00000040: bebe f4c9 929d 95bf 64ee e305 7752 66bf
00000050: b4b0 f505 71cd e9bf b738 c418 e61b 92bf
00000060: 03db cf24 980f 9abf 053b 4536 1dd1 21c0
00000070: 5bc3 e863 9ff9 5dc2 004c db9b 153c 79c0
00000080: e0da 0727 da5e c4bf 8fc0 f1b6 6cf5 b5bf
00000090: 212b a918 8d2f 71bf ab65 8a31 a327 ebc1
000000a0: 38e4 3308 a5e5 89bf 785d 8930 8a8d 8bc0
000000b0: 7b30 e355 64a6 81c0 e8e2 c1cf 8c02 68bf
000000c0: d6a8 3382 da5e a3bf 3c73 de48 a144 23c0
000000d0: d9d5 ffaa 16ae 20c0 6f86 81f2 fed9 57c0
000000e0: b191 02c3 13f8 76c0 7931 7c08 4978 13c0
000000f0: 5336 4d70 36f4 51bf a127 93b1 28e1 90c0
00000100: e085 72ba 0383 aebf 1cd0 86ba 699c 28c0
00000110: 3d13 46bb 6b79 fdbf b3f1 f4b3 3b16 e5c1
00000120: c6d6 ffec 6e01 2fc0 a2d4 be73 cf55 55c2
00000130: 317e 5031 2f10 a1bf 9ad0 da8a c7c2 3141
00000140: 5826 dd20 48ef a2bf d9e1 e960 098d 01c2
00000150: 859c 06b7 b555 26c0 8069 31d8 dd85 96c0
00000160: ac44 1f2b f54d e9bf 05a1 13ba 0e04 e3c1
00000170: b0fa 99b4 78f3 92bf 06ee 5291 5d4d 73c0
00000180: a7aa ca6c f8c8 88c0 f2e0 0117 7fd5 62bf
-238554198692.26968 -5.484900656982659 -439234392707.6549 -0.04206474074602547 -0.0005835113844606451 -1032.1337923297185 -0.031054767815235335 -0.026503924967287897
-0.02110890729562586 -0.0027248692196033975 -0.8063283077622345 -0.017684550534845935 -0.025450112578222505 -8.908425994826311 -514968096675.0524 -403.75527558958856
-0.1591446581439504 -0.08577613321699772 -0.004195738942665257 -3644660108.3249106 -0.012645043671442577 -881.6924753886842 -564.7989919423266 -0.0029309034562711063
-0.03783305014970188 -9.634043004183347 -8.340016692857647 -95.40618574761332 -367.50482464793737 -4.867466099338679 -0.0010958224895206883 -1080.2897398941934
-0.05959331179588978 -12.305494145352036 -1.842143756425869 -2830228895.6545043 -15.502799421530096 -366535888635.3224 -0.03332660176260694 1163975.5424013496
-0.03698182488603824 -9422580765.235277 -11.167402000004822 -1441.4666450234072 -0.7907663194875076 -2552264144.6134057 -0.01850689508727993 -308.8353436698384
-793.1213012536363 -0.0022990686630316387

W3 f8 [50, 50]
00000000: d395 746b b6d2 b33f 4ab5 2305 652f 53c0
00000010: 4347 a682 24dc a0bf 92d4 3c98 a9d1 21c2
00000020: 42f8 aa85 f814 64c0 e399 b0fe 4b9f a3bf
00000030: 97e3 a020 1f32 48c0 d50a 20ce a293 97bf
00000040: b6f9 fadb df6c a53f 90f1 43a2 033f 09c2
00000050: 09c0 7db1 1caf 97bf f5ee 0c1f 170d 933f
00000060: a137 4aa5 4019 5cc0 7761 0966 e176 a83f
00000070: 9645 3850 311a 39c2 53e3 a38b 9291 3dc0
00000080: d6a5 7699 4e4a 67c0 c7c4 bbb3 0256 483f
00000090: 7008 0876 d8a0 22c2 c9af d459 df36 783f
000000a0: 3d40 5f24 60e2 62c0 618f 41e1 df1f 49c0
000000b0: 2e30 82ed 627f 95bf 0856 bcc6 8fad a5bf
000000c0: c9ad 616b 5ff8 11c2 6487 8029 fb27 24c2
000000d0: 3191 79d0 f50a 52c0 6b5d b444 58c6 59c0
000000e0: 673e a2aa 8e7e 89bf 9a2f 8f59 b096 42c0
000000f0: 71cc 6d6b 3ddd 733f dc69 84dd 12c5 60c0
00000100: 1d33 78d3 da1d 2ac2 80e8 ca3a d0a1 6fc0
00000110: 93c7 00c2 53dd 44bf fb52 ef60 73ef 80bf
00000120: 57f0 8927 c10a 51c2 03e1 9063 f255 38c2
00000130: c160 c6f8 d1b5 b33f 1c87 8803 e32b b33f
00000140: 5552 79d9 6610 6dc0 1500 2bb0 601f 4ac0
00000150: 651b b724 ae22 933f 902a 4010 651f 46c2
00000160: 99de fbe3 d9d1 46c0 e2cd ffe1 eaf9 953f
00000170: b57e 3917 98e7 85bf f374 d703 d10a 51c2
00000180: 9409 7c14 4f1c 26c2 6c65 bb26 9590 63c0
00000190: 1818 ba6b 8d32 96bf 3776 f532 3681 43c0
000001a0: 27fc 04a8 0ba8 90bf cb59 a3e9 1f4c 86c2
000001b0: 9b44 da89 0867 54c0 2078 f0fc a2e5 b3c1
000001c0: d534 c5a6 5f8c 38c0 7acb 8245 630a d3c1
000001d0: 0d15 22d7 25a4 aec1 6cf8 3d8a 917e 97c2
000001e0: e9af 498c 81b9 bbbf 4c6b acc4 5622 9a3f
000001f0: 557b 4352 3191 4cc0 b706 251a 1558 8b3f
00000200: 0813 ad39 bb91 6fc2 2ad9 02f6 54e0 2dc0
00000210: 81d2 7d07 08a5 57c0 0c5d dc09 97bf d0c1
00000220: ef22 b7a1 25d7 90c2 3a5c d386 a36d aebf
00000230: 4899 48ac 5f5f d141 3268 992e d7f8 b541
00000240: fc0b a426 8108 a0bf cecf 3a04 e91f 9bbf
00000250: b605 5312 af9b a7c2 ad6b 4c93 5f1b 94c2
00000260: 2b08 aedd f34f 42c0 084f d752 db2f 4ac0
00000270: b61f 1f50 ba85 a6bf 97cd 14c5 efe6 32c0
00000280: 480b eee8 df0a 803f 3bd2 ba8d bab2 a941
00000290: 6660 31fb d7ee 4bc2 cf72 6cb5 e911 60c0
000002a0: 80e4 6b51 a851 94c1 77ac 2c6c 3143 7e3f
000002b0: 6585 9ea3 c3d3 86c2 d36d ec12 4157 73c2
000002c0: 0d6a 65e1 b155 973f ad07 f42e 016d a43f
000002d0: a6fa db86 518a 5dc0 d78a 85f8 a582 3ac0
000002e0: d111 dcca 4761 91bf 6df6 5abb cfa5 65c2
000002f0: 5853 cd26 e333 37c0 3e5e 73d0 cc43 a0bf
00000300: 40e8 a587 8621 c1c1 6c01 ac36 cc89 6ec2
00000310: 1628 db1d e4cb a7c2 9af9 7ac4 39e0 53c0
00000320: 07c1 5bb1 d84c 233f 4f9e 0df8 09a6 61c0
00000330: 3667 c5b0 a16c 9c3f 2c51 ab3e a7d3 3ec2
00000340: 5f11 1aed 577e 72c0 2c73 ea8a c35a b3bf
00000350: f07e df07 6c46 56c0 5219 94dd 79ab a4bf
00000360: 0f13 26dc 3e33 b3bf 2b53 feba 7dd6 25c2
00000370: 9171 f984 c8da 98bf d520 07d1 79ee 963f
00000380: 60ce 25f2 f5de 69c0 282c c39b e7c0 a5bf
00000390: 9fd1 9cfc a3b6 55c2 2ee5 e4f3 2e27 4bc0
000003a0: 56b3 b591 8c6f 75c0 df77 4659 53a7 b7bf
000003b0: 1381 fd1b 0a1d 40c2 70f0 c947 ad2f afbf
000003c0: 63c6 4eca bf36 73c0 21e2 f347 a994 59c0
000003d0: 253d 6c53 b59b babf 1e11 5591 c493 873f
000003e0: 64ef 3131 9f16 2fc2 40f8 66ea 5e6f 41c2
000003f0: 39f7 f8cf 1a9d 60c0 0836 1915 d1b9 67c0
00000400: 1563 3986 cc71 acbf 6f16 f0c9 121e 51c0
00000410: 1ce9 4c30 6dcf 633f 3607 5ee7 120e 71c0
00000420: 69c1 c168 3f97 46c2 1385 fafc 001f 7dc0
00000430: 4e5b a5f1 ffc1 a2bf e2a2 4b49 cb6f b0bf
00000440: 5314 3923 8b7b 6dc2 c809 5071 e30c 55c2
00000450: d7b3 e476 f8cc a2bf e9aa 36b9 65b7 9bbf
00000460: 6359 702b 57c3 7ac0 be24 aeba 1301 58c0
00000470: c807 8cd3 4626 a3bf bdda b584 d222 63c2
00000480: fb81 94c5 6d06 55c0 0724 7d46 2071 5d3f
00000490: 9f77 ab13 21e9 88bf 03d2 8693 a67b 6dc2
000004a0: dfff 462f 2720 43c2 ba77 ff91 8204 72c0
000004b0: 9cd8 cb89 7b21 bbbf e8ce 244f 08ff 2ec0
000004c0: 188e 1feb a79f 7e3f 28d4 484c ecbe 1140
000004d0: c9a2 2d90 9545 40c0 3182 83d0 9277 a0bf
000004e0: d14c 0142 c285 23c0 9e26 6a00 1880 6c3f
000004f0: e99e f941 8b6d b23f 4949 b675 21de f83f
00000500: 60a0 b4e0 3f84 ae3f d105 17cd eeac 80bf
00000510: f8da 90c8 40d2 36c0 fa38 5a8b cb44 9abf
00000520: 2f5c a378 3c00 2940 7036 43f2 560c 18c0
00000530: ee10 a88b 37e4 42c0 1804 3a79 8208 98bf
00000540: 7785 20db ceb9 1240 5f3e 991f b29d 823f
00000550: c4c6 4274 6e67 97bf 7381 c2e7 6f07 aabf
00000560: ba9e 34bd 4dd6 a2bf 9273 98e5 2cf5 86bf
00000570: 65cf f594 5a13 0240 5f10 920c 7c3f 1440
00000580: b316 6a8f 7e5b 2dc0 744a 7a54 2df3 34c0
00000590: 5387 ad71 c7ed 9abf 1f13 1571 0d4f 1ec0
000005a0: 43cf cad0 2e5f 833f 639a df3f 3782 b5bf
000005b0: 83a1 708b cb29 1a40 4802 4d4c 09a2 49c0
000005c0: e870 1ccf 0029 883f 3a46 50cd c819 7cbf
000005d0: 115e ed16 a9f0 4040 8af7 fe77 293d 2840
000005e0: dd0a 5706 9d40 733f 4c02 fa8f 6eab a23f
000005f0: e99b c281 6e8e 47c0 027e f557 4e1e 25c0
00000600: 4a17 08ff 6c7d aabf 6c09 b0e6 b901 3640
00000610: 948a cedd ec96 22c0 81d9 b81b 78c9 b3bf
00000620: f293 7bce a511 773f 5b57 999f 23ff 4040
00000630: 204f 2b03 95ee 1540 0f77 2687 63bf 3fc0
00000640: 5bf9 76a8 1771 78bf b641 875f a00b 26c0
00000650: caeb 0373 355b b2bf b805 ea8d 91bb 0840
00000660: 897c f43e 4308 37c0 937a 963a 35bf a33f
00000670: 389c 67c5 4dbf 1bc0 cc6e 3521 d796 b03f
00000680: ee12 eaa2 7449 983f a90b dd7a bc20 f23f
00000690: 4ba7 f335 232a b0bf 7acc 9e5e ce51 90bf
000006a0: 6151 2423 c704 30c0 3b21 e32c 1406 9abf
000006b0: 91e1 e527 a3a3 2140 d4ac 87c5 b549 11c0
000006c0: 9b73 d9c2 34aa 3ac0 f5e4 4f84 c98d a63f
000006d0: 1e38 a676 4307 0b40 747f 4aeb 7670 743f
000006e0: dc0f 806e 6337 aa3f f6ba 77ea d74c aabf
000006f0: cc29 ae37 9828 a03f d51e d44d 8f55 a83f
00000700: f570 7497 267f f83f 211b 72c5 2514 0c40
00000710: 1207 d3fa 6db5 24c0 ebaf c655 908e 2dc0
00000720: f2e5 1412 d486 77bf 2752 ec44 9c11 15c0
00000730: 4b1b bf8d 6b4e b33f 63e9 975f 5121 8fbf
00000740: 7fd4 8cde 7671 1240 3136 44dd b624 42c0
00000750: 2fec acee 43aa b23f eb98 c337 a2ed b33f
00000760: b73a 7fde 98fa 3740 0992 0ffd 2909 2140
00000770: 5c4f 8978 9476 b1bf 6e4b ea75 ad5c adbf
00000780: 7ddd 3d27 fbab 40c0 5846 cf69 aef2 1dc0
00000790: e5e2 3b4f 15e6 a83f bd90 d333 8c1f 2f40
000007a0: f19c ca25 9541 1ac0 d01c a40e 4706 9bbf
000007b0: b16f 17ea 4cbb 68bf 049f c08c beed 3740
000007c0: db2b b54d 7f6a 0f40 0335 97a3 a264 36c0
000007d0: ec3e c226 a785 903f bcf4 a413 26ad a73f
000007e0: e9dc 1584 afc2 9dbf 28a5 37de 1857 af3f
000007f0: a30b 140b 284f 723f f3c1 98fc 45f0 91bf
0.07743396876738666 -76.74054077612996 -0.03292955489008744 -38265998366.41518 -160.65533717529803 -0.03832471355444846 -48.39157493453893 -0.023024123984224005
0.04184627113635335 -13553923144.49295 -0.023128937085346055 0.018604623098538792 -112.3945706581858 0.047781985955853416 -107813621816.27182 -29.568642356406894
-186.32209466145895 0.0007426751321572216 -40003975940.01648 0.005911705460032787 -151.07423609355638 -50.24901977254081 -0.02099375319134838 -0.042339795121886736
-19295361752.419712 -43285058752.264435 -72.17125331756394 -103.0991374741913 -0.012448420126275296 -37.17725677005292 0.004849662704930245 -134.15855289327635
-56085014972.09983 -253.05666865950116 -0.0006367358182670528 -0.008269215961186563 -292779499047.7553 -104521163664.87895 0.07699310611349387 0.07488840900671473
-232.51255487151744 -52.245138188358546 0.018686982146188486 -190031995008.33252 -45.63946199224774 0.02146117214574684 -0.01069563694835494 -292783656797.82733
-47482112574.01871 -156.5182069454271 -0.021677217197542203 -39.009466523985274 -0.016266042833418617 -3064526091371.224 -81.60989614787324 -333816572.93933296
-24.548334525247657 -1277791510.0436692 -257037035.56656685 -6458093768574.105 -0.10829934763904671 0.02552161765479903 -57.134317667913514 0.013351597652789022
-1084711619944.5947 -14.938148200843518 -94.57861506736118 -1123965991.4431791 -4629058842056.733 -0.05943022747822409 1165852337.1343555 368629550.59924614
-0.031314884154220096 -0.026488915331995426 -12978712291714.855 -5526950040346.919 -36.62462969777729 -52.37388072503205 -0.043989012031999605 -18.902096097544554
0.007833241744952382 215571782.86488518 -239942497890.7531 -128.55977889233915 -85223956.35536385 0.007388299042570093 -3137347023824.6743 -1329092177606.864
0.022787837392892075 0.03989413927230543 -118.16122600061735 -26.510345013239967 -0.016972657925195925 -743809342167.7008 -23.20268480789977 -0.03176727337421113
-574819599.2961502 -1049287046496.0444 -13082236480916.043 -79.50352584847715 0.00014724869895799844 -141.18871691379397 0.027758146681072314 -132399972011.31708
-295.8964663522983 -0.07560369626521596 -89.10034367395178 -0.04037075834098637 -0.07500069498753369 -46896438655.16244 -0.024272091976273173 0.022394088156745113
-206.96752269157423 -0.04248737121960061 -373034054259.2753 -54.30612038303876 -342.9718186471631 -0.09239693574497164 -138413357051.0084 -0.06091062070206099
-307.42182379504646 -102.3228320962594 -0.10393842016877793 0.011512313542546834 -66761758872.96756 -149765870797.93945 -132.90952299715153 -189.80677275585208
-0.05555571688154807 -68.46989677854593 0.002418244609001209 -272.8796151802993 -194053591427.51102 -465.9377412591868 -0.036636350868028175 -0.06420584239425467
-1013014141384.6351 -361642181952.15283 -0.03672005130133698 -0.0270667928977372 -428.20878166090387 -96.01682917600826 -0.037401402782065996 -657508804014.8356
-84.10044993879994 0.0017969908894477375 -0.012163408673071361 -1013028527158.5629 -164287635085.999 -288.28187751571716 -0.10597965349356503 -15.49811026882476
0.007476478511282213 4.436448280282129 -32.54362680652918 -0.03216227336247746 -9.761247694643687 0.00347904861275057 0.07198400841445686 1.5542311285140207
0.05960273378360692 -0.008142343171928442 -22.82130101715572 -0.025653057461163954 12.50046135896818 -6.012050423958144 -37.782945115150014 -0.02346996178539848
4.681453155384012 0.009089843358338344 -0.022855497213362566 -0.05083799079989406 -0.036791257234935995 -0.011209822422694225 2.259450114966898 5.061996647276913
-14.678699952793385 -20.949910430771027 -0.026297680199952222 -7.5771997136223765 0.009458890673478165 -0.08401818570528401 6.540815523862309 -51.2659087539692
0.011796957321671589 -0.006860527403675537 33.880160203840326 12.119457006334205 0.0047002919940861395 0.036464171481388336 -47.11274740221399 -10.55919146415454
-0.051738172656810535 22.006742876031623 -9.294775897467197 -0.07729292561348268 0.0056320645159972805 33.99327464091649 5.482990312116982 -31.74761242570008
-0.005967228330915421 -11.022707925091577 -0.07170423562995079 3.0915862166445685 -23.032276091279105 0.0385681756990738 -6.936820110749117 0.0648016410900098
0.023717710917952432 1.1329922484735369 -0.06314296786481781 -0.015937065625348336 -16.01866359364192 -0.025413813819598046 8.819604155360851 -4.321982466131164
-26.66486757096173 0.04405050029886041 3.3785466451145245 0.0049900670316275104 0.051203829993056366 -0.051367518779320706 0.031559712216295915 0.04752776932769868
1.5310426632123015 3.5098376679847125 -10.354354704151351 -14.778444939140135 -0.005743816758064112 -5.267197682308086 0.07541534624679717 -0.015200267534045414
4.610805013032517 -36.28683057623528 0.07291054322279032 0.07784475194384625 23.978895097791533 8.517898471975984 -0.06821563666136171 -0.057347698825785595
-33.34360209007989 -7.486993459011124 0.048630395815001205 15.561616534782269 -6.564045515529174 -0.02639113451826064 -0.003018999312855507 23.92868880942025
3.9270006247438523 -22.393106674590864 0.01613484548630499 0.0462428950290614 -0.02906297916112247 0.06121137344946198 0.004470020693818552 -0.017518132726935986

b3 f8 [50]
00000000: 1ecc e86c 3959 9ebf ac37 dd26 6905 993f
00000010: 3810 68f0 87dc a53f 5daf e780 c098 8fc1
00000020: 4c77 dfc1 20a4 a2bf 8bce 7c47 011d b1bf
00000030: e8c8 1b4a e0b4 a6bf 1f15 571f ac9f 09c1
00000040: c863 2b64 ffa9 e6c0 63b8 91ef 1d62 76c1
00000050: 74ba 68ea 5732 afbf 814f ba8a 52e8 99bf
00000060: 7189 edf4 92c4 94bf 7f16 65ef e165 95bf
00000070: c36b 528b 7841 a6c1 0657 6b1d a0dc a5bf
00000080: 68a2 34ad 55e3 89bf 9ae4 a58b 0ffc d8c0
00000090: 6631 3294 1084 90c1 543c 452c 27ab 8dbf
000000a0: fbee 8195 2942 d6c0 e845 e218 1ba3 bdc0
000000b0: fb09 ab54 8096 a3bf a73a b135 dd31 8bbf
000000c0: f528 f3a1 64dd 7fc1 59c2 c097 d8de 91c1
000000d0: 12d3 01e2 a0a8 91bf 0260 3d5c 60b2 863f
000000e0: 69c9 5eff 416d 9fbf 8733 4eca f87e b0bf
000000f0: c62f 2893 e8cf a63f 63fb af59 dec2 d3c0
00000100: c834 490c b027 97c1 7fd0 b478 c106 933f
00000110: 4458 4c75 fac9 07c1 e62f 50d1 41ee 7b3f
00000120: 0a6f 233e 0c38 bec1 8b9c c8a5 7a93 a5c1
00000130: acd5 6128 5980 963f dc2c 794c ccde 84bf
00000140: bfae 9917 8b92 9abf fece 79d2 fd14 b2bf
00000150: 139f 06a7 bbc1 99bf 3d6a f15c 2c9d b3c1
00000160: ccf0 4bf9 7161 9ebf 47b1 1b4e 71ae 76bf
00000170: e6e6 2801 99a9 a8bf 4d9d d35d 2838 bec1
00000180: ee6e 02f7 6f9a 93c1 e765 9c82 a363 6cbf
-0.029637238762188038 0.024434702870443623 0.04269814309739711 -66263056.11312745 -0.03640844694721909 -0.0668488311319441 -0.04434872536320872 -209909.51530281545
-46415.980977721105 -23470558.973076236 -0.06093096481742047 -0.02530030223586222 -0.020281120490275698 -0.02089646361971242 -186694725.6609784 -0.042698863593313915
-0.012640637729945683 -25584.242898438686 -69272613.04901657 -0.01448660472729394 -22792.649750216846 -7587.1058484478635 -0.038257608733619684 -0.013278701973971364
-33412682.12186523 -74954277.93824138 -0.017244828981762224 0.011082413496907865 -0.03069022294193627 -0.06443743647669296 0.04455496593808976 -20235.47422408628
-97119235.0714904 0.018580458633735916 -194879.30727452238 0.006819016552082479 -506989630.1384131 -180993362.89181933 0.021973984803897714 -0.010190578540593291
-0.025949643435906774 -0.07063280476159758 -0.025153095311593775 -329067612.9430273 -0.029668598976954993 -0.005537455175481937 -0.04816892756612194 -506996829.82661897
-82222077.75237629 -0.003465480190141024

W4 f8 [50, 2]
00000000: 8ccc b704 7f26 9fbf 011f ce9a 3c68 a83f
00000010: a345 6cf0 a130 63c0 9dba d170 1531 6340
00000020: c326 f8ff 9100 b63f a19d 3c0f cd17 a93f
00000030: 479c d5aa 445c 6c42 7998 d5aa 445c 6cc2
00000040: 593f 450f 19d9 0541 0313 066f 19d9 05c1
00000050: 8437 b139 d921 af41 9289 c639 d921 afc1
00000060: 457a 750c efdf 76c0 4707 c05a 5ae0 7640
00000070: 103c 4dc6 f40c e441 fc4d 4dc6 f40c e4c1
00000080: 41f4 30ca 12bc c141 3cf1 36ca 12bc c1c1
00000090: f18f 56e5 3617 5442 fb95 56e5 3617 54c2
000000a0: ea25 0fb4 8b2f 5940 bed9 28cc 8b2e 59c0
000000b0: 7e37 1e0a 10b6 48bf 88ef 33c9 6c4c 7f3f
000000c0: b579 f7f4 3f51 4441 162c f7ff 3f51 44c1
000000d0: 27ff c280 2c6f c7bf 20ca 7381 f34e c83f
000000e0: 8259 9881 e9f9 8342 a35a 9881 e9f9 83c2
000000f0: aaf7 fa3f 4657 2341 b775 4546 4657 23c1
00000100: d85e 706d 8e90 3b41 d20f 1474 8e90 3bc1
00000110: c9e5 d99e ec8c b341 5cc9 d99e ec8c b3c1
00000120: 349a 2578 04a6 6d42 b59a 2578 04a6 6dc2
00000130: d3e9 53d9 6da0 e3bf eed7 14f8 4beb e63f
00000140: c9af aaa6 d36a b141 8784 aca6 d36a b1c1
00000150: 0a63 85a7 e930 9741 1e7f c3a7 e930 97c1
00000160: f527 fbdb 8f0c a53f b1df ef8c 5354 aabf
00000170: e021 dbff 635c 09c0 c663 10dc 3cd0 0940
00000180: 06a0 f3fb e099 5c42 429d f3fb e099 5cc2
00000190: 72ab d96f 450a 7042 6bab d96f 450a 70c2
000001a0: ebdf 76db 51bc 4a41 4f12 39ec 51bc 4ac1
000001b0: df3d 845e 2530 1b41 3aa6 3574 2530 1bc1
000001c0: 303e dbcc 544a 9fbf 7e58 5a12 af1b 66bf
000001d0: 3816 bf56 e9d6 5741 e7cf 1255 e9d6 57c1
000001e0: 5852 a840 010e b3bf 2f4b 244a 672e 9e3f
000001f0: 954c 645a 2eed ae41 8609 675a 2eed aec1
00000200: d245 1397 8cc8 7442 c845 1397 8cc8 74c2
00000210: f599 7a21 6e7c 1341 caa7 56d7 6d7c 13c1
00000220: 4113 bea7 6b9d e241 17f8 bda7 6b9d e2c1
00000230: 6c0b 2c5a 936d 05c0 3203 5a68 7c88 0540
00000240: 93c7 a384 b01f 9b42 a9c7 a384 b01f 9bc2
00000250: 4bef c1c6 bd5d 8342 81ee c1c6 bd5d 83c2
00000260: 666c f7d7 e99b d7bf 241e 8f36 39f0 d03f
00000270: c396 bbb2 ed11 27bf a5c2 066a a9b7 b6bf
00000280: b889 bbf3 05e8 82c0 fab7 8775 4ee7 8240
00000290: c199 5072 029a 80c0 0094 e0ee 9a99 8040
000002a0: 9541 2cc9 eca6 f6bf c866 7de8 1c3c f83f
000002b0: c1f4 dc3e e29a 9142 c2f4 dc3e e29a 91c2
000002c0: 47df d46e 87d9 3c41 f927 cb84 87d9 3cc1
000002d0: 68ff 49d8 fa90 3fbf 7d81 c31e f767 a13f
000002e0: d70d 0bf8 8c56 d341 1a97 05f8 8c56 d3c1
000002f0: 3abf f3c2 c91f 9b42 77bf f3c2 c91f 9bc2
00000300: 928a 4695 6d98 7142 ac8a 4695 6d98 71c2
00000310: 8392 0022 5db0 5bc0 1e70 e454 2eb1 5b40
-0.03042028871818707 0.04767026319228585 -153.51976796290282 153.53386727297485 0.08594620227099896 0.0490097123241029 974456706732.8837 -974456706732.7648
178979.13245629778 -178979.1792108045 261155996.84612668 -261155996.88776833 -365.995861491105 366.0220592023001 2691147314.413582 -2691147314.4157696
595076500.382454 -595076500.4292369 345155278170.2491 -345155278170.34344 100.74290181617076 -100.72728256215393 -0.0007541254346834362 0.007641243882286271
2663039.9138023504 -2663039.9997305973 -0.18308025633995692 0.18990939923203687 2745510671115.1885 -2745510671115.3296 633763.1249616046 -633763.1372486864
1806478.4274958875 -1806478.4534311187 328002718.8511625 -328002718.85072875 1018714898732.8188 -1018714898732.8346 -0.6133336300547917 0.7162227483120185
292213670.66674477 -292213670.6738972 97270377.88026062 -97270377.9409146 0.041111465075644484 -0.05142460914061021 -3.1701126087902907 3.2266785805227043
491362971598.50037 -491362971598.45715 1102268792218.7153 -1102268792218.7136 3504291.7145652673 -3504291.8454916845 445449.342301337 -445449.3634859059
-0.030556988719409428 -0.0026987475747076153 6249381.355413012 -6249381.329273201 -0.07443244770576862 0.029473890209440853 259430189.19589677 -259430189.20124453
1428224045364.3638 -1428224045364.3613 319259.5326942497 -319259.4602915017 2498452797.9398503 -2498452797.9365344 -2.678503708333144 2.691643538710559
7455729854705.894 -7455729854705.915 2661667100733.9116 -2661667100733.813 -0.3688912018821554 0.2646620781710871 -0.0001760103854088671 -0.08873995626960125
-605.0029062892345 604.9133101084728 -531.2511946007654 531.200650934712 -1.415753160316034 1.5146760064730405 4839229601597.188 -4839229601597.189
1890695.4329356716 -1890695.5187249167 -0.00048166393415981787 0.033996317391713916 1297757152.1727197 -1297757152.0873475 7455835733231.807 -7455835733231.866
1209148200040.6606 -1209148200040.667 -110.75568437629595 110.76845285709757

b4 f8 [2]
00000000: d46a 76ac 904a a23f 1e1c 0f08 29b0 aebf
0.035725136807021635 -0.05993774627091163
