checkpoints/MLPmodel.pth (torch, 40956 bytes, 7 tensors)

layers.0.weight f4 [64, 15]
000000 43 04 a2 3d 55 e5 9b bd 6f c1 63 3e 67 50 7a 3d
       0.07910969 -0.07612101 0.22241758 0.061111834
000010 ae 49 83 be df 8c c9 bd ba 42 1e be c7 5b 8d be
       -0.2564215 -0.09841322 -0.15455142 -0.27609083
000020 fc 28 6a 3d fb af e4 bd 53 54 24 be 81 46 41 bd
       0.057167992 -0.11166378 -0.16047792 -0.04718638
000030 87 b4 54 be 55 86 ff 3d 63 35 5d be 02 cf 03 3e
       -0.2077199 0.12476794 -0.21602397 0.12871936
000040 2f 82 c4 be 8c 46 4c be 9e 0a 9c be d8 01 a9 3c
       -0.38380572 -0.19948786 -0.3047685 0.020630762
000050 e2 d7 bb be e2 fd cd bd 07 01 99 3e 36 2a 54 3e
       -0.36688143 -0.1005819 0.29883596 0.20719227
000060 46 f0 b5 be a8 ee 94 3d e6 c6 1f 3e a1 ba af 3f
       -0.35534877 0.072720826 0.15603217 1.372883
000070 99 5d e3 bd 20 b8 67 3d eb c6 21 3e f0 a2 1f 3e
       -0.11101837 0.05657208 0.15798537 0.155895
000080 68 86 bf 3e 53 f2 59 bd c5 43 e9 3d 5c 37 2e be
       0.3740723 -0.053209614 0.11389879 -0.17013305
000090 43 98 e1 3e 92 45 e3 3c d2 b0 be bd dc 0c a4 3c
       0.4406148 0.027743135 -0.093110695 0.020025663
0000a0 43 86 38 be c9 05 d5 3e 29 81 23 3e d6 ad b3 bd
       -0.18019967 0.41605976 0.1596724 -0.08773391
0000b0 49 0d c7 be 6b 43 2b be 90 98 be be 5d 3b b0 be
       -0.38877323 -0.16724937 -0.3722577 -0.3442029
0000c0 d9 70 5d 3e 44 46 7e 3e 6e 65 6d bb d0 f3 4c 3d
       0.21625079 0.24831492 -0.0036223787 0.050037205
0000d0 d0 5b 18 3e d9 68 50 be 8b 48 fc bd e2 c6 0f be
       0.14878774 -0.20352496 -0.12318524 -0.14040712
0000e0 06 e3 fe 3d 2a 75 a1 3f c8 16 e0 bd 27 53 99 3d
       0.12445645 1.2613881 -0.10941845 0.07486563
0000f0 10 40 ee be 9d 0c 71 be 2c af 7d be 3a d3 7a be
       -0.4653325 -0.23539968 -0.24773854 -0.24494639
000100 6f 4c 26 3e ef f5 51 bd 62 ac 01 bf 2d 38 5e bc
       0.16240095 -0.05125993 -0.5065366 -0.013563198
000110 35 29 d1 bc e2 e9 39 3d 57 a9 43 3d 31 e8 b9 3c
       -0.025532344 0.045389064 0.047768917 0.022693725
000120 03 cd 4a be 20 6f 9f be fa 40 aa 3e 09 27 29 3e
       -0.19804768 -0.3113947 0.33252698 0.16518797
000130 7b cd 0f 3f c8 11 c9 bd 4d f5 1e be 01 bd 9b bd
       0.56172913 -0.09817845 -0.15523262 -0.07604409
000140 c0 f5 79 be 1b d0 c0 3d 00 b5 8e 3c a2 07 a4 3e
       -0.24410152 0.09414693 0.017420292 0.32037073
000150 50 2e 00 bd 2b 20 62 be 86 77 9c be fa 1c 46 bf
       -0.031294167 -0.22082584 -0.3055994 -0.77387965
000160 f1 15 af 3e 1c 79 27 bf 80 a4 aa 3d 19 2a 93 3d
       0.34196427 -0.65419173 0.08332157 0.07185764
000170 fe dd cf bc 0d 40 cd be 48 c0 1a 3e 0a de a3 3c
       -0.025374409 -0.4008793 0.15112412 0.020003337
000180 b7 9b 7a be 4d c7 42 bf d9 53 59 3e b7 ee 8c bc
       -0.24473463 -0.7608536 0.21223392 -0.017203672
000190 41 8e 35 3d fc c2 af be d0 39 82 3f b3 f2 91 3e
       0.044325117 -0.3432845 1.0173893 0.28505477
0001a0 9f 33 6b 3d 08 56 50 3e 1f 13 2f be 71 51 21 bf
       0.057422277 0.20345318 -0.17097138 -0.63014895
0001b0 10 cb 43 3e 83 06 50 bb e9 b3 6f 3e 98 41 be 3e
       0.19120431 -0.0031742163 0.23408474 0.3715942
0001c0 f9 24 ac be 7e 7d 81 be 31 e4 c7 3b ef be 81 be
       -0.33621958 -0.25291055 0.0061002006 -0.25340983
0001d0 01 01 a3 3b f5 32 d2 be e5 cf d4 3e 9e 2b 38 3e
       0.004974485 -0.41054502 0.4156486 0.17985389
0001e0 03 c2 81 3e 9e cc e4 3e e2 4e ae 3d 93 03 80 be
       0.25343332 0.4468736 0.085111395 -0.25002727
0001f0 a3 93 83 be 54 cf c9 be 65 07 19 be 49 1a 53 be
       -0.25698575 -0.3941599 -0.14944227 -0.20615496
000200 b1 48 e1 bd 2e a7 20 3d 1f e0 a7 3e a3 9a 85 3d
       -0.11000193 0.039221935 0.32788178 0.06523635
000210 82 09 f9 3e 02 05 68 3e 33 02 12 bf 5c 59 9d be
       0.48640066 0.2265816 -0.57034606 -0.30732238
000220 49 bd 18 bf b6 30 11 3e 88 7b a7 3e 1c 2f 62 3d
       -0.59663826 0.14178738 0.32711434 0.05522071
000230 28 06 91 be 18 0c 9c bd d3 d1 49 3e 9d af fe bd
       -0.2832501 -0.07619494 0.19708948 -0.12435839
000240 15 1e b0 3d 1f 30 54 bd 7f 28 43 bd a8 65 87 3f
       0.08599488 -0.051803704 -0.047646042 1.0577898
000250 fb 04 a3 be 9d ca 5a 3e c0 cf a0 3e f9 7a 7f 3e
       -0.31839737 0.21366353 0.314085 0.24949254
000260 8a 95 12 3e f8 5e 51 3e 5d f0 e5 bc 00 82 db be
       0.14314857 0.20446384 -0.028068716 -0.4287262
000270 96 20 bd 3d e3 81 04 bf af 78 97 bd a0 a7 3a bb
       0.09234731 -0.5176069 -0.073960654 -0.002848126
000280 92 6e 7b 3e e6 86 a6 be b6 3a 58 be 0d cd 70 3e
       0.24553898 -0.32524794 -0.21116146 0.2351572
000290 2f 1a 11 3e 61 0f db bd 07 75 0c 3d b5 e0 a4 be
       0.14170144 -0.10696293 0.034291293 -0.32202688
0002a0 13 32 ca be c9 8b 05 3e f3 c0 d3 bd 4d e3 e4 3d
       -0.3949133 0.13041605 -0.103395365 0.11176167
0002b0 3d d6 af 3d 89 7c 3d 3e f4 c4 23 bd 1c 1c 93 bd
       0.085857846 0.18504538 -0.03998275 -0.07183096
0002c0 49 54 a1 3e 1b b0 90 bf 32 18 c7 bc 05 0d a6 3a
       0.31509617 -1.1303743 -0.02430353 0.0012668675
0002d0 65 6b 8a 3e 4e 58 a9 3d 3d ae 98 be 82 0e 3d be
       0.2703506 0.08268796 -0.29820433 -0.18462566
0002e0 4f c9 99 bd 17 4a 2c 3e 36 f3 c7 3e ca fe 6b be
       -0.075091 0.16825138 0.39052743 -0.23046413
0002f0 5d c4 8e 3e a9 c3 cb be 0c a3 82 bd 69 35 cc 3e
       0.27884188 -0.39797714 -0.06378755 0.398845
000300 b3 10 02 be 7d 07 1b 3d df d5 ac 3d af ee 8b 3d
       -0.12701683 0.03784894 0.0843923 0.06832635
000310 d5 26 d6 3d ed 73 80 be 78 6b 3b 38 08 c6 07 bc
       0.10456625 -0.25088444 4.4684362e-05 -0.00828696
000320 70 bf e4 be 33 33 0e be 83 3c 7f 3d e2 31 c8 bd
       -0.44677305 -0.13886718 0.062313568 -0.097751394
000330 25 8f dc bd 64 93 e9 3b cd db 7f 3e 1f fe e2 3d
       -0.1076949 0.007128166 0.24986191 0.11083626
000340 62 88 d2 be 09 3d e2 3e f7 8e a2 3e df fb 89 3e
       -0.41119677 0.4418719 0.317497 0.26949975
000350 fa dd 97 3e 3c b7 ff be a6 23 4b be 6e 65 e0 bc
       0.29661542 -0.49944484 -0.19837818 -0.027392115
000360 9a cd 86 3e 02 dc 63 be c5 fa 9a bc 96 a6 b1 3c
       0.26328737 -0.22251895 -0.018918404 0.02168588
000370 47 9a cf 3d 9c e4 33 3e 00 a3 0a 3f 71 fd d4 3d
       0.10136848 0.17567676 0.5415497 0.103999026
000380 36 27 93 be 00 3c 83 be c5 3d 67 bd 88 78 d5 be
       -0.28740853 -0.25631714 -0.056455392 -0.4169352
000390 20 51 a1 be 04 22 68 3e 7c 62 6c 3e a2 b4 f0 bd
       -0.31507206 0.22669226 0.23084444 -0.11753203
0003a0 e0 b7 c5 bc 6e db 30 3e cf 76 49 be bc 3a 6f bf
       -0.02413553 0.17271206 -0.19674228 -0.93448997
0003b0 af 5a b4 be 81 cc 4b be bb 69 49 be 53 79 db 3c
       -0.35225436 -0.19902231 -0.19669239 0.02679125
0003c0 d9 ef 7a 3e 47 e0 57 be fa 34 dc 3e d9 5c 98 3e
       0.24505557 -0.21081649 0.43009168 0.29758337
0003d0 9e d0 86 be a8 47 79 bc c5 15 8b be ad a3 14 be
       -0.26331037 -0.015214838 -0.27165046 -0.14515562
0003e0 f7 b8 9c 3e 40 ef 14 be 07 d0 28 bd 36 34 5d 3e
       0.30609867 -0.14544392 -0.041214015 0.21601948
0003f0 5c d4 f1 3e 72 db 6c 3e 30 24 0e 3e f9 13 c9 bc
       0.4723233 0.23130587 0.13880992 -0.024545657

layers.0.bias f4 [64]
000000 79 a0 0f 3e 84 e3 29 be 1d c6 87 3e d1 03 35 3e
       0.14026059 -0.16590697 0.26518336 0.17677237
000010 9a b3 9d be e7 d2 3b 3b 5e 4a 54 bd 76 ad 8f 3e
       -0.30801088 0.0028659643 -0.051828735 0.28062028
000020 bd f8 d9 3d 39 f9 31 be ec 34 f6 3d c2 d0 ab 3b
       0.10643146 -0.17380227 0.12021813 0.0052433917
000030 77 e4 c3 3d c2 a1 5a be dc 74 ae 3e 16 1a fb 3c
       0.095650606 -0.21350768 0.34073532 0.030652087
000040 ac 82 82 bd 0a 70 f0 be ae 0a be bd 66 69 84 be
       -0.0637258 -0.4696048 -0.09279381 -0.25861663
000050 89 01 73 be 3d 32 e3 3c 54 e6 37 be cc ee 09 3e
       -0.23731054 0.027733916 -0.17958957 0.1347
000060 ca de 23 bd 3b 84 10 be 78 02 1f be b0 fe 64 be
       -0.04000739 -0.14112942 -0.15528286 -0.2236278
000070 f0 27 81 3c 25 f2 94 bc 16 e6 8b 3e 2a 58 65 be
       0.015766114 -0.01818187 0.2732398 -0.22396913
000080 c9 4e 82 be a2 f1 50 bc 3a 4d 32 3e fd f9 8b 3e
       -0.25450733 -0.012752922 0.17412272 0.27339163
000090 da 16 a4 bc 6a 44 0b 3e 59 ce 13 be f5 c0 21 be
       -0.020030428 0.13600317 -0.14434184 -0.15796264
0000a0 8b e9 90 3e d0 b5 69 3d 54 54 56 be 20 e8 4a 3e
       0.2830318 0.057058156 -0.20930606 0.19815111
0000b0 5d b8 79 3d 1a a9 95 3e 7e e5 8c be 77 4a e6 bc
       0.06096684 0.29230577 -0.2751884 -0.02811168
0000c0 8d c5 3c 3e c1 0e 33 3d ee 58 e9 3c 60 d4 50 be
       0.18434735 0.043715242 0.028484788 -0.20393515
0000d0 bd 72 29 bd af c9 26 be 67 75 d5 3d 39 2d 85 bd
       -0.04136919 -0.16287874 0.10422783 -0.06502766
0000e0 f9 76 71 be 6e c8 84 3d f2 ca 9e be 6e 0d 9e 3b
       -0.2358054 0.064835414 -0.3101421 0.0048233783
0000f0 dc 93 ed bb a9 8f b8 bd 47 14 0a 3b 95 0f 08 be
       -0.007250292 -0.09011776 0.0021069215 -0.13287194

layers.2.weight f4 [64, 64]
000000 4f 5f 1d 3d a3 40 5f 3e 75 8d 92 be 5a 72 30 3c
       0.03842097 0.21802 -0.28623548 0.010769451
000010 30 94 0d be 32 ff 9b bc c1 e0 1a 3e 40 2d 53 bd
       -0.1382606 -0.019042585 0.151248 -0.051556826
000020 0e f7 0e bd db 29 6b be 4b 3a b6 bd 5a 02 82 3e
       -0.03490358 -0.22965185 -0.08897837 0.2539242
000030 aa 84 38 bd 4d f6 70 3d e5 ce 21 be 51 92 5b 3d
       -0.045048393 0.05882864 -0.1580158 0.053606335
000040 d1 05 cd be c6 92 f5 bd 49 6a 0b 3e f3 3a f3 3e
       -0.400435 -0.119908854 0.13614763 0.47505912
000050 54 b5 88 3d 0e 10 b9 bd 40 d4 dc 3d 6d ad 51 bf
       0.066752106 -0.09036265 0.10782671 -0.8190525
000060 1d 46 57 be 08 24 ae 3d 43 15 14 3c f8 3b 43 3d
       -0.2102284 0.08502966 0.009038272 0.047664613
000070 56 7e 43 3e be 03 b3 3e 27 6b 7f bd 3b dd 98 3d
       0.19091162 0.34963793 -0.062358048 0.07464071
000080 dd a9 b8 bd 22 c1 58 be f8 12 87 3c ff ea c4 be
       -0.09016774 -0.21167424 0.016488537 -0.38460538
000090 d7 09 be bd 99 6d c6 be 4f 56 5e 3e 29 75 c1 be
       -0.092792206 -0.3875549 0.21712612 -0.377847
0000a0 7f 13 bd 3d e8 7c 00 3f 85 b6 5a 3e c7 65 ee bd
       0.09232234 0.5019059 0.21358688 -0.11640506
0000b0 b5 c7 a1 3d fe a2 44 3e 14 ab 2b be 54 da 17 3e
       0.07899419 0.19202802 -0.1676448 0.1482938
0000c0 06 d7 01 3e 83 30 2b bd 99 46 a7 be 79 92 b7 bd
       0.12679681 -0.04179431 -0.3267105 -0.08963484
0000d0 8c f7 39 bd c3 38 e8 be 60 b2 90 bd 98 5f 75 3c
       -0.045402095 -0.45355806 -0.07065272 0.014976405
0000e0 e1 9b 2f 3e ff 01 8d be a7 b9 02 be 45 b4 2f bd
       0.17149307 -0.27540585 -0.12766133 -0.042896528
0000f0 60 25 25 be 0d b0 0e 3e 21 64 1e bd b0 c8 bb 3d
       -0.16127539 0.13934346 -0.03866971 0.091691375
000100 79 ef 02 be 95 72 c8 bd 6a df 37 3e 0e 02 53 be
       -0.12786664 -0.0978748 0.1795632 -0.20606253
000110 8c 94 c9 bc 29 36 a4 be d3 89 23 be 79 8d 21 bf
       -0.024606965 -0.3207257 -0.15970545 -0.63106495
000120 e5 50 8e bd 5f a1 87 bd b4 4b 3b 3b 26 5a 82 3e
       -0.06949023 -0.06622576 0.0028579058 0.25459403
000130 7c 1b 35 3e 6f 0a 4c bd 38 5a 2f 3e 52 11 f6 3d
       0.17686266 -0.049814638 0.1712426 0.12015022
000140 b1 cd 99 3d 0a 35 30 be 65 78 46 3e d1 55 98 be
       0.07509936 -0.17207733 0.19381864 -0.29752973
000150 e2 fa 5f 3e 59 0e e6 3d fb 63 36 3d ef ac 0b be
       0.21873048 0.11233205 0.044528943 -0.13640188
000160 a6 84 3d be f0 d7 90 3c a6 a3 32 be d2 39 04 be
       -0.18507633 0.017681092 -0.1744524 -0.12912682
000170 68 dc 28 3e 32 a3 d6 bc b8 97 3c 3e 7a 3b be 3b
       0.16490328 -0.026200864 0.18417251 0.00580543
000180 79 3f 87 3d 06 57 90 bd a8 7c 32 3e 7e 21 1e 3e
       0.06603903 -0.070478484 0.17430365 0.15442464
000190 c4 f2 8c 3e f3 b5 b4 3e 95 20 39 3e 4c 2b f3 3d
       0.27528965 0.35295066 0.18078835 0.118734926
0001a0 1e 2f 53 3d 23 05 c7 be 27 6e 4f be ea 16 85 bd
       0.051558606 -0.38871107 -0.20256864 -0.06498511
0001b0 32 eb 58 3e 04 ef 93 be 52 64 bd be 31 1e a5 bd
       0.2118347 -0.28893292 -0.369906 -0.08062399
0001c0 47 1b 1e bc 1a 6a 33 3d ae 5a b0 3e f3 49 c7 3e
       -0.009650058 0.04380236 0.34444183 0.38923606
0001d0 8c ba ed bc d0 86 bb 3d 57 55 8b be 74 d8 75 3c
       -0.029019617 0.09156573 -0.27213547 0.01500522
0001e0 61 0d 8e 3d 64 27 82 bd b7 e3 3c 3b ae a0 f7 3d
       0.069361456 -0.063551694 0.0028822252 0.12091194
0001f0 8d f0 a0 bd be 28 be 3e 33 da 03 3e 53 c6 8a 3d
       -0.078583814 0.3714046 0.12876205 0.067761086
000200 2a 30 c6 bc cb 8c 5e 3e 23 2f 08 bd 06 42 46 be
       -0.024192888 0.21733396 -0.033248078 -0.19361123
000210 93 33 05 be 04 46 0f bf 11 e4 4d 3b 50 7e 15 3e
       -0.13007955 -0.5596621 0.0031416456 0.14598966
000220 e8 2b 9b 3e 75 28 51 be 8b 09 c5 3d cd 67 46 3d
       0.30306935 -0.2042559 0.09620961 0.048438836
000230 e7 4c 25 3e cb f0 55 3d ca 0b 23 3e 4b a2 37 be
       0.16142617 0.05223159 0.15922466 -0.17933004
000240 5d 23 9f 3d d5 ac 8e be 32 4d 22 be b2 77 11 3e
       0.07770417 -0.27866235 -0.1584976 0.14205816
000250 14 1c a0 be 53 62 79 be b6 52 86 be b5 d5 d5 3e
       -0.31271422 -0.24353914 -0.26234978 0.41764608
000260 ba 28 47 be 21 20 41 3d 20 7b a7 be e8 48 94 3c
       -0.1944913 0.04714978 -0.32711124 0.01810117
000270 5b 3a 8d be 21 b8 3a bd f3 17 fd be 52 a4 8c be
       -0.27583584 -0.045585755 -0.49432334 -0.27469116
000280 fa cf 69 3e eb 77 23 3d 4f 2a 8b 3e 97 98 31 3e
       0.22833243 0.039909285 0.27180716 0.17343365
000290 c0 e9 87 3c 44 7a 5d 3e 7e 1d e1 be 4e d7 8a be
       0.016590953 0.21628672 -0.43967813 -0.2711739
0002a0 4f a1 62 3d 76 e0 09 bf 5d 5a 4b bc d3 8c 86 bd
       0.055329617 -0.53858125 -0.012411681 -0.06569829
0002b0 44 04 a8 bd fa 22 cd 3d b7 76 ae 3e c3 3c ff 3d
       -0.082039386 0.10016437 0.34074947 0.12462761
0002c0 b8 5c 81 be ce af 76 be dd c4 51 3c 42 c8 40 be
       -0.2526605 -0.24090502 0.0128032835 -0.18826392
0002d0 ae a6 1e 3e 93 f2 ac be 33 06 20 be 58 ac 64 be
       0.15493271 -0.3377882 -0.15627365 -0.22331369
0002e0 ec f1 67 bd 9f 1d 30 bd c9 ef 93 bd 7b bd 4a 3d
       -0.0566272 -0.042997 -0.0722347 0.04949711
0002f0 2a c7 10 be fb 25 f9 bd 62 5b c8 bd 33 ac 5c 3d
       -0.14138475 -0.12165447 -0.09783055 0.05387516
000300 0d 0f 97 bd b6 ae 10 3e a6 1b 71 be 4a d7 1b be
       -0.073759176 0.14129147 -0.23545703 -0.15218845
000310 17 ab 40 3e 8d 19 b8 3e a7 4b 85 3d 77 8d 60 3e
       0.18815266 0.35956994 0.0650857 0.21928965
000320 b9 c5 01 3e 34 9c 42 be cc 2d 1d 3d df e0 70 bd
       0.12673081 -0.190049 0.038373753 -0.058808204
000330 4e d3 a2 3e e1 99 30 3e 9d 4d cb 3d 16 1c a3 bd
       0.31801838 0.172462 0.09926913 -0.07964341
000340 37 35 b5 3e 55 31 89 3d d7 f1 28 be 28 79 04 3f
       0.35392162 0.066988625 -0.16498505 0.5174737
000350 54 13 4c bd 8a 3f de 3d 54 68 8e 3c 9b 23 1a 3f
       -0.04982312 0.10851963 0.017383732 0.6021058
000360 a9 fe f3 bd 6b 40 16 bb d6 3a 90 bd dd f0 43 3d
       -0.11913807 -0.002292658 -0.07042472 0.047837127
000370 14 6a 40 3e d8 94 02 3f 6c 23 9e bc 10 b4 49 bd
       0.18790466 0.5100837 -0.019304 -0.049243987
000380 1e 40 00 bd a5 97 1d bd b9 62 95 be 5b 4c 81 3e
       -0.031311147 -0.038474698 -0.29176882 0.25253567
000390 21 ab 93 bd 24 92 9a be ba 1b 14 3e d1 fe 5a 3e
       -0.072103746 -0.3018962 0.14463702 0.21386267
0003a0 3d 21 88 bd 38 eb 82 bc be 05 9c 3d a2 95 9f bd
       -0.06646965 -0.015981302 0.07618283 -0.07792212
0003b0 94 36 31 3e c2 38 ef bd 5a 0c 7b be 7d e3 65 bc
       0.17305976 -0.116807476 -0.2451643 -0.014031288
0003c0 61 d3 40 be 52 4e 42 3e 41 b2 0e be dc cb b2 be
       -0.18830635 0.1897519 -0.13935186 -0.34921157
0003d0 9a 31 27 be 8b 2e 85 bd dc 04 07 3c 9b e1 35 bd
       -0.16327515 -0.06503018 0.008240905 -0.044404607
0003e0 8a 03 a7 3b b5 ea a8 3e 32 86 c4 be 67 60 3d be
       0.0050968574 0.32991567 -0.38383633 -0.18493806
0003f0 63 1c 97 bd 6a 80 16 bf bd 9c bd be 4a ad bb bd
       -0.07378461 -0.58789694 -0.37033644 -0.09163912

layers.2.bias f4 [64]
000000 dd 74 40 3e 1a 03 82 3b b1 9b 2d be 56 d3 35 bd
       0.1879458 0.003967655 -0.16953923 -0.044391
000010 e7 14 9f bd e5 4f 8b 3d a9 9d 2f be 1c 47 79 3d
       -0.07767659 0.06802348 -0.17149986 0.06085883
000020 39 8a 05 be 5a 22 3d be 93 9f 9f be e2 dc 90 3c
       -0.13041009 -0.18470135 -0.31176433 0.01768345
000030 b9 55 d8 bc b5 82 0b be 08 24 5e be 25 68 fc bd
       -0.026408063 -0.1362408 -0.21693432 -0.123245515
000040 d2 67 9c bd fc 2d 9b 3d 9b 92 c7 3c 09 8a 31 be
       -0.0763699 0.0757713 0.0243619 -0.17337812
000050 be a3 10 be 98 bc a8 bd 80 df 0f 3e 0e a3 4a 3d
       -0.14124963 -0.082390964 0.14050102 0.049471907
000060 37 dc fa bc bb 85 42 be e0 01 1f 3d dd 42 2a 3d
       -0.030622585 -0.18996327 0.038820148 0.041567672
000070 b7 20 2b 3d 31 81 eb bd 94 6c f8 3c 50 a6 1e be
       0.041779246 -0.11499251 0.030325212 -0.1549313
000080 34 4d e0 3c 41 43 5b 3d 22 a7 54 bd d9 8a a0 3c
       0.027380563 0.053530935 -0.051917203 0.019597458
000090 49 5b b7 be 89 94 c4 bd bd bd f8 bd 35 7d 1b 3d
       -0.35811833 -0.09598643 -0.12145565 0.037961204
0000a0 d2 90 d8 3d 90 e4 bb be c4 d5 3e be c8 5f a7 3c
       0.10574497 -0.36697817 -0.18636233 0.020431414
0000b0 44 3d 65 3d 2a 83 a3 be 46 10 ce bd c3 3d 60 be
       0.05596663 -0.31936008 -0.10061698 -0.2189856
0000c0 5a ca 5d bd 65 d6 1c bd 16 22 ef bc fe c6 bc bd
       -0.054148056 -0.0382904 -0.029191058 -0.09217642
0000d0 fa 0c 96 bd 3a 7c 98 be ec e7 34 3b 2b b6 fc bc
       -0.07326694 -0.29782277 0.0027604057 -0.030848583
0000e0 fd fb a8 bc 4a 35 5a 3d 8b d2 26 be f7 a3 60 3d
       -0.02062797 0.053273477 -0.16291253 0.05484387
0000f0 85 4b 8d bd be c2 4e 3e b8 11 1e be 58 30 96 3d
       -0.0689917 0.20191476 -0.15436447 0.073334396

layers.4.weight f4 [64, 64]
000000 91 2d 15 be d8 c4 c4 3d b7 9a 1f be 26 96 20 be
       -0.14568163 0.096078575 -0.15586363 -0.15682277
000010 70 9d 3c be a4 d9 61 3e 0f b8 86 bd 9d 2e 3e bd
       -0.18419433 0.2205568 -0.06578075 -0.046431173
000020 d3 81 33 be 6a 57 6f 3d 56 72 e7 3d f1 89 c9 bd
       -0.17529993 0.058432974 0.11301105 -0.09840763
000030 b9 2a 2f 3e 45 3a 81 3c ce 42 6d 3e 78 2a 0e be
       0.17106141 0.015774855 0.23170015 -0.13883388
000040 ee 53 28 3d 49 a1 78 3b 62 64 07 3e 40 a0 1e 3e
       0.041095667 0.003793793 0.13221887 0.15490818
000050 4b 78 8a 3e 60 aa 86 be 22 ea e4 bd 72 a7 b7 be
       0.270449 -0.2630186 -0.1117747 -0.35869938
000060 cb bb 51 3e 5b 68 3e 3c 74 1a 5d 3e 67 24 af bc
       0.20481794 0.01162156 0.21592122 -0.021379663
000070 5f 26 f5 bd fc b5 7f bd e6 d2 75 3e 1c 47 98 bd
       -0.11970209 -0.062429413 0.24006233 -0.07435438
000080 9e 15 a9 3d 7e 1d 07 3e 5d d1 da be 9c 53 6f be
       0.08256076 0.13194844 -0.42737857 -0.23371738
000090 cc 94 b6 bd df 77 59 3d 57 f4 af be 04 cb a7 be
       -0.089150995 0.053092834 -0.34366104 -0.32772076
0000a0 68 e8 a0 bc 55 1b 95 bd 00 2a a6 be 5e c3 56 bc
       -0.01964207 -0.07280604 -0.32453918 -0.013108103
0000b0 1a 9a 20 3c 54 00 8f 3e b6 d8 58 3e 00 53 a6 3c
       0.009802366 0.27929938 0.21176419 0.02030325
0000c0 36 57 50 39 a6 e6 1e 3e 2a f7 20 bd d1 b4 8f bd
       0.00019868914 0.15517673 -0.039298214 -0.0701691
0000d0 98 ed 9e 3e 8a b5 1c be ae ff da 3d 45 a2 18 3e
       0.31040645 -0.15303627 0.10693298 0.14905651
0000e0 e6 9c f4 be d4 2a 3a be 9d 0d ae bd 33 e0 62 bd
       -0.47775954 -0.181804 -0.0849869 -0.055389594
0000f0 48 e3 d2 3d 49 30 24 bd 7f 6d e0 3c ed 35 60 3e
       0.10297257 -0.04008511 0.027395962 0.21895571
000100 ce b7 a4 bd 46 df 3e 3e e3 aa c7 be 5c b6 77 be
       -0.080428705 0.1863986 -0.38997564 -0.24190658
000110 55 ac e7 3d bf 63 e4 3d fc 80 a3 3e 6b 41 ac 3e
       0.113121666 0.111518376 0.31934345 0.3364366
000120 1d 0d b3 be 5c 8c 9d be b5 03 67 3e 58 cf 2b bd
       -0.34970942 -0.30771148 0.22560008 -0.041945785
000130 80 32 2c be a3 74 2d 3d 5b 0b 4a 3e 9d 19 61 be
       -0.16816139 0.04234756 0.19730894 -0.21982427
000140 e8 58 0f 3e d3 9d 2f 3e bc e7 7f 3e dc 69 82 3d
       0.13998759 0.17150049 0.24990743 0.06367847
000150 08 84 25 3e cf 0b 6b bb 22 4c 19 3e be fe 77 be
       0.16163647 -0.0035865193 0.14970449 -0.2421827
000160 b3 d4 b0 3e c5 e2 cd 3b a3 92 11 3e 6a bd 85 be
       0.34537277 0.0062831366 0.14216094 -0.26121074
000170 e4 61 d2 bd 95 fa 42 3e 2a 17 26 3e ce cc 82 3d
       -0.102725774 0.19040902 0.16219774 0.0638672
000180 00 be 1e bc 5f d3 4c 3d 8a d2 a1 bd 0a b5 50 be
       -0.009688854 0.050006267 -0.07901485 -0.20381561
000190 d4 52 09 bf 51 80 38 bb d2 a9 fd 3c 55 30 3c bc
       -0.5364201 -0.0028152654 0.030964766 -0.011486133
0001a0 24 26 a7 bc c8 cd ac be a3 53 ab be 8d 14 4f 3e
       -0.020403929 -0.3375075 -0.33462247 0.20222683
0001b0 63 da 80 3d 26 37 d1 bd 34 4e a5 bb ed 85 d3 be
       0.06291654 -0.10215597 -0.005044723 -0.41313115
0001c0 db 26 c2 be 38 dc f9 3d b4 7c d1 be b1 d5 04 be
       -0.3792027 0.122002065 -0.40915453 -0.12972142
0001d0 25 f1 9d 3e 58 d0 94 be 08 fe 49 bd f8 74 eb 3d
       0.3084804 -0.29065204 -0.04931453 0.114969194
0001e0 90 ad 45 bd 3a e4 8e be 63 3b e1 bd c9 4b 08 be
       -0.048261225 -0.27908498 -0.10997655 -0.1331016
0001f0 a9 6a 96 be 16 03 85 bd 24 e4 16 bd 34 fe 0a 3e
       -0.2937825 -0.06494729 -0.036838666 0.13573533
000200 ff 35 73 3e d1 ac 68 3d bc 6c 59 bd 05 76 a5 be
       0.23751067 0.056805436 -0.053082213 -0.32316604
000210 fd c4 0d bb 47 2d a0 bd 28 06 55 be 63 ea 56 3e
       -0.0021632307 -0.07821136 -0.2080313 0.20987849
000220 cb 55 03 be 5e a5 d0 3d da 7e 66 3e d3 ee e8 bd
       -0.12825696 0.10187791 0.22509328 -0.11373677
000230 55 41 6f be 01 30 aa 3d 36 eb 90 3e b8 94 db be
       -0.23364766 0.08309937 0.28304452 -0.428869
000240 fb dd 82 bd 2b 96 87 be 2a ea c8 3d fd 2c f2 bc
       -0.06389996 -0.26481757 0.09810288 -0.029562468
000250 71 20 8e 3e c7 e9 b3 bd 58 2f 1d 3e cb a6 b0 be
       0.27759126 -0.08784824 0.15350091 -0.34502253
000260 27 91 d6 3e 8e ea 99 bb 19 bf c5 bd c2 98 0d be
       0.41907617 -0.0046971506 -0.096555896 -0.13827804
000270 0c ce 59 3d 2b 8e 9d be e7 4a 88 3e 51 d7 7d 3e
       0.053175017 -0.30772528 0.26619646 0.24789168
000280 f7 23 b0 bc ae 16 71 be d6 d7 11 bf c1 85 b4 be
       -0.021501524 -0.23543808 -0.56969965 -0.35258296
000290 96 10 80 3e 2b b7 ad bd f3 50 37 3e 32 54 c8 bd
       0.25012654 -0.08482202 0.17901973 -0.09781684
0002a0 45 df 3a 3e 41 3a fe be 91 c5 a4 be 7e a8 43 3e
       0.18249233 -0.4965382 -0.3218198 0.19107243
0002b0 34 9e ad bd cd 1f 12 3e b6 d1 1d 3d 89 89 97 be
       -0.084774405 0.14269944 0.038530074 -0.29597118
0002c0 ec 19 be bc ef 8f aa bb 9a 00 88 be a3 d1 93 bd
       -0.02320572 -0.0052051465 -0.2656296 -0.072177194
0002d0 ff 9e 62 3e cc 3b b6 bd a8 5d e4 bc 0d 6b ba 3c
       0.22130965 -0.08898124 -0.02787669 0.022756124
0002e0 c5 76 d9 3c 1d 5f ac be f9 cf 95 3e f6 77 9b ba
       0.026545892 -0.33666316 0.29260233 -0.0011861313
0002f0 96 5d 05 be 21 db f2 bc ae 52 9e 3c 61 07 0d 3e
       -0.13023981 -0.029645504 0.019326534 0.13772346
000300 77 4e 13 be 4c 31 ec 3d 03 6b 56 bd 61 6e 48 3d
       -0.143854 0.1153284 -0.052348148 0.04893339
000310 d8 47 44 bd cf 07 06 bf d9 db d7 be e8 b9 00 3e
       -0.047920078 -0.52355665 -0.42159918 0.12570918
000320 33 ab 1e bd 7b 2a c2 be 25 2c 9d 3c 92 c1 ab 3d
       -0.038737487 -0.37923035 0.019186089 0.0838653
000330 86 a6 22 3d 55 9b 18 be 16 21 e4 be 2e 3c 93 be
       0.03970959 -0.14903004 -0.44556493 -0.2875685
000340 10 df 48 bc 3f b9 c0 3e d4 87 9b 3e 6c 95 ff 3d
       -0.0122602135 0.37641332 0.30377066 0.12479672
000350 4b f4 ef 3c 88 13 0b be 79 aa c3 be 57 4d 1a be
       0.029291293 -0.1358167 -0.38215998 -0.15068565
000360 d4 86 58 be 5b f8 b6 3c 67 56 80 3d e0 a3 48 3d
       -0.21145183 0.022335222 0.0626648 0.04898441
000370 bc 16 d4 bb f6 f2 5f 3e 0b 70 b8 be 5a 10 b3 be
       -0.0064724367 0.21870026 -0.36022982 -0.34973413
000380 50 11 97 be 9e 93 04 3f f8 89 aa 3c 4d a2 a7 bc
       -0.29505396 0.51787746 0.020817742 -0.020463133
000390 ee 12 02 be 77 a7 0f bc 8e 20 b3 3e 5f 11 f5 3c
       -0.12702534 -0.008767954 0.34985775 0.02991551
0003a0 29 f3 01 bf 7d ee aa be 4c b2 24 be 10 e7 b8 be
       -0.5076166 -0.33385077 -0.1608364 -0.36113787
0003b0 e6 b2 dd bd 29 ef ba be 49 52 67 3e 6b f2 c2 3b
       -0.10825138 -0.3651059 0.22589983 0.0059493086
0003c0 04 f0 9a be 3a 3e 97 3c c6 d5 d8 bb 3c dc 5d be
       -0.30261242 0.01846229 -0.0066172807 -0.21666044
0003d0 4f 6e 4a 3e 9f 4b a2 bd 1e 54 ec bd 4c 92 9f 3c
       0.19768642 -0.0792458 -0.115394816 0.01947894
0003e0 98 eb 38 3e b5 fb 49 be d5 13 8a be c8 b6 32 be
       0.18058622 -0.19724925 -0.26968256 -0.17452538
0003f0 e7 e4 84 bd 47 46 30 bc 6d 3b 27 bd 8f fc 28 be
       -0.06488972 -0.010758943 -0.040828157 -0.16502593

layers.4.bias f4 [64]
000000 a8 67 54 bd 68 46 87 3d bc 66 40 3e 4a d3 2b be
       -0.051856667 0.06605226 0.1878919 -0.16779819
000010 72 18 fa 3d 2f f6 e7 3c 4c 6d ce be fa d3 ac be
       0.12211694 0.028315632 -0.40317762 -0.33755475
000020 51 64 a5 3d a6 c7 a1 bd 48 c1 47 be 2e 99 94 3a
       0.080757745 -0.07899408 -0.19507325 0.0011337155
000030 24 ea ea 3d ad 85 19 bd 24 e7 a1 be 85 26 6f be
       0.1147044 -0.037481 -0.3162166 -0.23354538
000040 60 67 96 3b ae a0 13 be ce a1 7c be 02 55 86 be
       0.00458996 -0.14416763 -0.24671099 -0.2623673
000050 2b 29 81 3d 7a da c8 3c fe ae 8a 3d 7d 6d 23 bd
       0.0630668 0.02451824 0.06771658 -0.039899338
000060 e8 44 76 be 33 3e 98 be 4f 71 98 be 2c 93 92 be
       -0.24049723 -0.29734954 -0.29773948 -0.28627908
000070 0e 6c 6e 3e d8 fb e8 bd f3 0e 13 be 82 35 fa bd
       0.23283407 -0.113761604 -0.14361171 -0.12217237
000080 94 7b 26 3e 08 0e 04 3e d5 73 03 3e 85 72 ba 3c
       0.16258079 0.12895977 0.12837155 0.022759685
000090 58 6f 8b be c0 e3 25 3d f3 62 1e bd df 5e 3b bd
       -0.27233386 0.040500402 -0.038668584 -0.045744773
0000a0 32 c8 9e be d0 d2 aa 3d e0 4f b3 be 66 6e 2e be
       -0.31012112 0.083409905 -0.35021877 -0.17034301
0000b0 18 45 b0 be 6c c4 3a bc 5d 05 63 bc e4 d0 7d be
       -0.34427714 -0.01139937 -0.013856259 -0.24786717
0000c0 b8 79 5e be a4 22 43 be 61 de 1e be 30 ca ca bd
       -0.2172612 -0.19056183 -0.15514518 -0.099018455
0000d0 a9 05 48 be b7 80 3b 3d f7 ab 78 be a0 3f c2 be
       -0.19533409 0.04577705 -0.2428435 -0.37939167
0000e0 b4 5f 06 3e 25 ea a0 3c f5 f5 91 bc 36 85 eb bb
       0.13122445 0.019642899 -0.017817477 -0.007187511
0000f0 4a d5 47 be 12 34 3c be 28 43 3a 3d e8 23 74 3d
       -0.19514957 -0.18379238 0.0454742 0.059604555

layers.6.weight f4 [1, 64]
000000 3e b6 a1 3e 5c d5 f0 3e f3 91 c0 3e c8 c8 b1 be
       0.31584352 0.4703778 0.3761135 -0.34723496
000010 c1 97 4b 3d 33 82 10 3f 0d 37 f3 be 9d c1 0b bf
       0.04970527 0.5644867 -0.47502938 -0.54592305
000020 b5 85 2a 3e c8 09 99 be e1 fa 80 be 4e 32 3c 3e
       0.16652568 -0.29890275 -0.25191405 0.18378565
000030 a5 47 a4 be 14 2f 8f 3e ea 68 31 3f 54 db 41 3e
       -0.3208591 0.27965605 0.6930071 0.18931323
000040 00 49 8f 3e 59 3a 6d be 0d 10 cf 3c ed a0 0d 3e
       0.27985382 -0.23166789 0.025276208 0.1383092
000050 bb fb 1f be 84 4c 18 3e 78 e5 c6 3d b7 3a f3 be
       -0.15623371 0.14872938 0.097117364 -0.47505733
000060 47 a7 8e 3e 1f c7 26 bd fd 38 7f 3e e6 f8 e9 3e
       0.27861997 -0.04071724 0.24924083 0.45697707
000070 c2 d2 b1 3e 51 f2 09 3f a7 b5 bf 3e c8 2f b5 be
       0.34731108 0.5388537 0.37443277 -0.35388017
000080 20 ba 1f 3e 70 c3 99 3d 5f 31 f8 be 5e 84 fa be
       0.15598345 0.0750798 -0.48475167 -0.48929113
000090 25 1f 94 be 70 5e 7b 3e cd c4 76 be fc ed 0e be
       -0.2893001 0.24547744 -0.24098511 -0.13957971
0000a0 a9 54 ae be 7e bc 09 bf 2a b2 d2 be 3e 4d 34 be
       -0.34048966 -0.5380324 -0.41151553 -0.1760759
0000b0 f6 48 c4 be 74 4c 32 3e b3 86 4b 3e bb 91 d5 be
       -0.38336915 0.17411977 0.19875602 -0.41712746
0000c0 bb e2 fd be 90 e3 b8 be a8 92 b7 be ff fc ab be
       -0.49587044 -0.36111116 -0.35854077 -0.33591458
0000d0 f9 b3 ca be ce 1d 26 3e 9a 62 13 3f 42 bf 9c be
       -0.39590433 0.16222307 0.5757233 -0.30614668
0000e0 ca 34 cd 3d e0 40 97 3d f8 54 9e 3e 6f 50 cb be
       0.10019834 0.07385421 0.309242 -0.39709803
0000f0 f4 c2 c4 bc e5 ec 02 3f 7c f1 df 3d a0 7d be 3d
       -0.024018742 0.5114272 0.10934731 0.09301305
