checkpoints/offesnive_coordinator.pth (torch, 979260 bytes, 9 tensors)

rnn.weight_ih_l0 f4 [512, 88]
00000000: 30ee 53bc f920 ebbb 1f79 0ebd 2731 efbd
00000010: 7cbb f6bd e572 c8bc 353b f0bc 5044 2bbc
00000020: d7ef c7bd 2df7 1abd 98d6 df3b 116c 0cbe
00000030: 778f acbd f4e4 05bd edf5 08be 3cf7 c9bd
00000040: 8701 d3bc 5952 8fbd 2ee4 f3bd f638 893c
00000050: 38a4 a4bd 56e1 c6bd a5b0 a73c 53cd cf3b
00000060: c667 97bc b020 a7bd cd13 72bd 00bd a13b
00000070: 8bec aebc 33fb 02be adc8 abbc deef a0bd
00000080: d227 383b bf0c c2bd afef 29bd a3c4 5fbc
00000090: d21a fabd b131 cdbd 89da 48bc 3ab3 0abe
000000a0: 2d56 8a3c 1335 b7bd 3562 e23c 3098 57bd
000000b0: 25bb a83a dce1 7f3c 1dae 6ebd 84aa febb
000000c0: 53d5 f3bc f573 25be 3de1 ddbd 3ee0 d6bd
000000d0: ef44 09bd c908 13bc f3c8 633a 8b12 503d
000000e0: c6bd e8bd dc99 14be 9638 fd3b d754 a1bc
000000f0: 617d 05be 1770 cbbd 7296 f4bd 1c92 13bc
00000100: 1d08 0a3d 99e6 0dbe ab5f 9e3c 3cb1 0d3c
00000110: 12cb 14bd 9c5f 3abd aabb 1abe a027 143c
00000120: 66d3 56bd 112d 413b 8051 5dbd ab02 0bbe
00000130: 6275 3539 1b4b ed3b 3bf4 763b d84f 913d
00000140: 3e01 b33b 79c2 16bd ff27 783c 201e 6bbd
00000150: 0238 14be bc67 1cbe d33c 5a3c 9167 553d
00000160: fb5f 863d 6251 0dbe 17dc 0f3e f16d 7d3e
00000170: 6d19 e33e 14fe 9e3f 294d 52bd f760 3d3d
00000180: a27e 87be a65c babe 0edb 1abd fa18 a23e
00000190: c8a8 4c3e 2539 953f bb90 0bbf 0dc4 303f
000001a0: 6837 a5bd 9106 36be fd88 5abc 7420 cc3e
000001b0: ba56 c03d 3b5b 9a3f 60ce f43d 65ee b43d
000001c0: ae41 17be bf96 babe e8d6 f3bc 86a2 593e
000001d0: d991 fd3d d926 9a3f 92e9 f1be 4b6a 0d3f
000001e0: ff40 95be 895a 863e 2ddf 7ebc 1d3f 643e
000001f0: e2e8 993e 93f4 8f3f b3d4 3fbe c8d2 713e
00000200: 8802 0b3e eab6 8dbe 3a7d 5e3e d97b 803e
00000210: c50d d93e 48af 9f3f d86b 333f 4fc1 533f
00000220: 5147 d5bc 1e22 cf3b 27c2 4e3c ea88 5a3e
00000230: 20a7 adbd 8d83 a43f e9dd 0bbf a622 9cbf
00000240: ec52 2ebd da03 75bb c1e2 a73d 0e45 673e
00000250: 31ea b73e 988c 993f b1bf a23f c84a 153f
00000260: 2284 72bc 6d66 833d dd9e 903d 1f97 bb3e
00000270: 85d2 143e b6f5 933f c917 e83e 8570 09bf
00000280: 37c1 97be 3112 293e 2b7b ebbd 1bb1 a63e
00000290: f57e ad3e c9c0 a03f 58db 4a3f dd18 69bf
000002a0: 5788 5fbe 7ab9 f73d 125d e8bc 9f87 993e
000002b0: b8c4 dd3e 35eb 953f 5cba e8be c704 593f
000002c0: 39ab c43d 8e50 933d baa0 1f3e 4a4f ec3d
000002d0: 4cf5 ea3d 25c4 b63d 6886 dabb 8c43 c93d
000002e0: 9f34 53bb 8ad0 263d 84e8 a2bc 1308 463d
000002f0: a316 5cbd 44bc 103e 9e6b 023e dd81 563d
00000300: bbb1 3f3d 8463 323d 6dfb 8d3d bc5a 903d
00000310: e669 263e 698d 163e 1945 cf3c d1c7 a2bd
00000320: f28d 9dbc 907c b7bd 9a6b aebd 8a96 28bc
00000330: 4806 0b3e d589 7dbc 51ed d6bd ec34 28be
00000340: 7e0d bbbd 5606 21bd ebf8 23be cd64 203d
00000350: 6d54 813d 0185 5b3d c230 a9bd e0c8 c4bc
00000360: 5b5f 16bd 4ba1 fcbc 04e5 94bd cef6 b9bc
00000370: 0473 e23d b8eb c53d bea2 c6bd 3e6e 1b3e
00000380: effd bebc 6bfa 013b e149 bcbd 9979 f3bc
00000390: d5fb 12bd 971d 8e3d d57f 893d 2f06 9b3d
000003a0: ceb5 b0bc a1b2 0fbe a9ed 653d d104 3d3d
000003b0: eb99 433d 580f 973a 4c96 bfbd 528a 903d
000003c0: cc7d d43c cd24 9b3d f0db 31bc 94ce fbbc
000003d0: 29bb 9f3d 753a 333c 17a1 9c3d 9476 c2bd
000003e0: 256e 3fbd dccd 12be 4723 1a3d c8ef 003d
000003f0: 1a32 f1bc 566f 80bc 2d35 223e 9b15 033e
-0.012935206 -0.0071755615 -0.03478348 -0.11679297 -0.120474786 -0.024468848 -0.029325107 -0.010453299
-0.09762543 -0.03783338 0.0068310015 -0.13713099 -0.08425801 -0.03268905 -0.13375063 -0.09861609
-0.025757564 -0.069981284 -0.11908756 0.016750794 -0.08039135 -0.09710948 0.020469973 0.006341615
-0.0184821 -0.081605315 -0.059100915 0.0049358606 -0.021353027 -0.12791137 -0.020969713 -0.07858251
0.0028099907 -0.094750874 -0.041488346 -0.013657722 -0.12212147 -0.100192435 -0.012259134 -0.13544932
0.016886795 -0.0894567 0.02763472 -0.05263537 0.0012873156 0.015617814 -0.058271516 -0.007771792
-0.029764807 -0.16157515 -0.108339764 -0.104919896 -0.033513006 -0.0089742625 0.00086893066 0.050798934
-0.113643214 -0.14511818 0.007727693 -0.019693775 -0.1303611 -0.09933489 -0.11942758 -0.009007003
0.033699144 -0.13857497 0.019332727 0.008648213 -0.036326475 -0.045501336 -0.1511065 0.00904265
-0.0524477 0.0029476325 -0.054032803 -0.13575236 0.00017305234 0.0072416193 0.0037682194 0.07095307
0.0054627946 -0.036806557 0.015146255 -0.057401776 -0.1447449 -0.15273947 0.013320166 0.05210072
0.065612756 -0.13800576 0.14048801 0.2474897 0.44355336 1.2421288 -0.051343117 0.04623505
-0.264638 -0.3639881 -0.037806563 0.3165968 0.1998626 1.1658064 -0.54517716 0.6904915
-0.080672085 -0.17775942 -0.013338325 0.3986851 0.09391542 1.2059091 0.119534254 0.08834533
-0.14771149 -0.36443135 -0.029765561 0.21253404 0.12381334 1.2043105 -0.47248513 0.55240315
-0.2915115 0.26240948 -0.015556139 0.22289701 0.30060488 1.1246513 -0.18733482 0.23615563
0.13575184 -0.27678615 0.21727458 0.25094488 0.42393318 1.2475367 0.7008643 0.8271684
-0.026034983 0.0063212058 0.012619532 0.21341291 -0.08479142 1.2852646 -0.54635483 -1.2198074
-0.04255955 -0.003738633 0.08197547 0.22584936 0.3592086 1.1996031 1.271475 0.5831723
-0.014802011 0.064160205 0.07061551 0.36638734 0.14533432 1.155936 0.45330647 -0.53687316
-0.296396 0.16510846 -0.11498102 0.32556996 0.33885923 1.2558833 0.7924094 -0.91053563
-0.21829353 0.12095924 -0.028364692 0.29986283 0.43314147 1.1712404 -0.4545468 0.84772915
0.09602971 0.07193099 0.15588656 0.11538561 0.11472568 0.0892413 -0.0066688545 0.09827337
-0.003222741 0.040726222 -0.019886263 0.048347544 -0.053732526 0.14134318 0.12736365 0.05236994
0.046800356 0.043551937 0.06932721 0.07048556 0.16251335 0.14702381 0.025301503 -0.07948268
-0.019232724 -0.08959305 -0.08516617 -0.010289798 0.13576615 -0.015474756 -0.10494483 -0.16426438
-0.09133433 -0.039312683 -0.16012923 0.03915863 0.06314931 0.05359364 -0.08261253 -0.024021566
-0.03671203 -0.03083863 -0.07270244 -0.022700693 0.11057094 0.096641004 -0.09699009 0.15178773
-0.023314444 0.0019833099 -0.09193779 -0.029721068 -0.035884697 0.069392376 0.06713835 0.07569539
-0.021571066 -0.14032985 0.056134854 0.04614717 0.04775421 0.0011524959 -0.09354839 0.070576325
0.02593889 0.075753786 -0.01085566 -0.030738153 0.0779937 0.01093923 0.07647913 -0.09495273
-0.0467359 -0.14336342 0.0376313 0.031478673 -0.029442836 -0.01567809 0.15840597 0.1280121

rnn.weight_hh_l0 f4 [512, 128]
00000000: c657 a33a 0c82 1bbe bd4d debd 2463 01bd
00000010: 7dc6 3fbd e225 a8bd f51d dabc ae76 e4bc
00000020: 5b33 283c 60ab 0a3c 233b a0bd 2329 2dbc
00000030: 9bf3 92bd 5900 a0bd 11f0 b5bd 10d9 4dbc
00000040: ed4a 58bc 02c6 d4bc 1829 64bb c9ad dcbc
00000050: 1516 383d a1f9 47bd 567f 26bd 99f1 a3bc
00000060: 991e 9fbd 76a4 a53c 0ffa a13d 1db3 023e
00000070: 3ca0 f53b 5288 013e 3ad9 50bd 3085 3bbc
00000080: bb2f c83d cbef 71bc 8f5d 263d acc2 d53d
00000090: 36bc a2bd 3ce1 2f3d 8284 93bd 9292 1fbd
000000a0: 5ad1 f93b 92f5 cd3c c57c 1ebd 86d0 8cbd
000000b0: 2aad e6bc e3b0 c83c 9a41 4b3d 12e5 fcbd
000000c0: 3bbf e93d 4129 85bd aed4 37bb c292 85bd
000000d0: d3d2 f4bc acc9 8bbd c7b6 ca3d e3ce 833d
000000e0: f9d6 8c3d 8b4a d2bc bbc7 ee3c 6407 e73d
000000f0: 92aa 95bd 01f6 483c b1f2 c2bd 32c3 54bd
00000100: 7fe3 06be dc19 17be cfd3 0bbd dba5 e93d
00000110: 284c b3bc 00cd 8d3d f618 12bd 5f37 373d
00000120: 025c 00bd afe1 703d cc13 8e3d d4d4 e2bd
00000130: 5536 e73d cd02 d8bd 29b4 38bc 0727 a9bd
00000140: d20a c1bc daab 34bd 9764 a03c ede3 2ebd
00000150: c756 0ebe 8db4 81bd 76e0 2a3c 5369 56bd
00000160: 224e 14bd fa3a 22bb 00f7 65bd a935 2cbc
00000170: 4ffc dc3d c6c4 c33d 6f11 503d 4fe3 32bd
00000180: 6b84 993d 8417 613d 314f 6f3d 0965 7abd
00000190: 227e cd3c 0c63 ce3d 0b4c 9bbd 7fee d53d
000001a0: afbc 95bd 6834 003d 9fde 873d aefa 9abc
000001b0: 1544 d1bd 359e b63d 9bb6 a63d cca6 ae3d
000001c0: 25f9 f6bd 315c dabd b92e e83b 6dfc 953d
000001d0: 2b15 02be 1b25 82bc a0ce 753d 5daf d6bc
000001e0: 8df9 d13a cd46 ebbc d867 1bbc 11ad 28bd
000001f0: a3c7 953c fdbc eabc cace aa3b 4bbd 6a3c
00000200: 174a 32bd 3acd 1d3d 3abc bfbe d63c b5bd
00000210: e797 84bd 973c 26bd 9d2f 8fbc 8257 2e3d
00000220: a767 14bd cbde 85bd ba00 b0bc 9155 063d
00000230: b09a d83d e045 ce3d 5513 99bd 437d d3bd
00000240: 3de3 2abc 9fb1 96bd e939 6cbd ad47 b03a
00000250: efa5 603f eab8 f63d f81f 483b a71f 8b3e
00000260: 9edf 583f 9190 bdbd feda abbf 6428 903e
00000270: 569f 2cbf de29 e43d d784 4b3f 3906 07be
00000280: c658 713c 910d a23c 9e2b a9bc 044e 16bf
00000290: ae1d afbd e718 993d 85fc ab3c 7028 50bd
000002a0: 209f 8cbd 7c00 703d 4c7b 233d 00bf 083e
000002b0: dc4c 8dbd aa1b 08be 0669 cfbd 850a 2a3f
000002c0: 93c5 a7be cc4f a03b 5460 72bc 7866 b0be
000002d0: fb4c d33d f5e6 46bd 3888 783d 6307 ecbd
000002e0: 8c17 33bd 35e8 cbbc fc75 74bd 7c54 23bd
000002f0: de69 133d 8402 4fbc 8c6e 69bd 374c f43b
00000300: a652 c5bc 4307 063f 0415 97bc 4877 223d
00000310: f28a 233c 12f7 b43c 2f5b f63d 239a bfbd
00000320: 0bad d63c 9142 9cbb 1c4d 44bd 665e 75bd
00000330: 09f6 e73c a7c3 b23e a07e 013e ae82 903d
00000340: fda1 0dbe 8f96 aa3d 7ac6 5e3e 8491 4fbd
00000350: c8f8 e9bb df76 dfbd bb20 b33e 662c debd
00000360: b83d 2d3c f96a 213e fd33 a5bd 18cd 01bd
00000370: 4423 b2be 6f58 ffbc b78e b43d 52ea 62bf
00000380: a907 fdbd 3c70 283e a979 caba 9343 f1bc
00000390: d872 35bc 73bb fabc 6675 b9bb 50f4 b53d
000003a0: 5bd0 27be ea9b 37bf 9f04 a83d bf63 9ebb
000003b0: 0850 9bbc 7d0d 18bd 7fa3 83bd f3d2 4fbe
000003c0: 63e8 81bd dded 963c f3e0 b73f 1417 c0bd
000003d0: 6682 26bd 09f1 2e3f 5ade de3d 11fb 003e
000003e0: 0a01 24bc 9f86 ccbd ecef 203b 896e 583d
000003f0: c236 f4bb 2bd2 97bc e582 d83b 17ed 0bbd
0.0012462072 -0.15186328 -0.10854671 -0.03158869 -0.046820153 -0.082103506 -0.026625613 -0.027888622
0.01026615 0.008463711 -0.078237794 -0.01056889 -0.0717537 -0.07812566 -0.0888368 -0.012563959
-0.013201457 -0.025973324 -0.0034814533 -0.026938336 0.044942934 -0.04882205 -0.04064878 -0.020012664
-0.07769508 0.020220023 0.07909023 0.12763639 0.007495908 0.12649658 -0.050988413 -0.011445329
0.09774729 -0.014766644 0.04061657 0.10437521 -0.07946055 0.04293941 -0.07203008 -0.03895814
0.0076238336 0.025141511 -0.03869321 -0.0687571 -0.028158743 0.024498409 0.04962311 -0.12348379
0.114134274 -0.06502009 -0.002805035 -0.065221325 -0.029885685 -0.06825575 0.09898143 0.06435945
0.0687694 -0.02567031 0.029147973 0.112807065 -0.07307924 0.012265683 -0.09518946 -0.051943965
-0.1317272 -0.14755958 -0.034137543 0.114085875 -0.0218869 0.06923866 -0.035668336 0.04473054
-0.031337745 0.05880898 0.0693737 -0.1107575 0.1128966 -0.10547409 -0.011273422 -0.08259397
-0.02356473 -0.044109203 0.019579215 -0.042697836 -0.1390029 -0.063332655 0.010429492 -0.05234654
-0.036207326 -0.002475439 -0.05614376 -0.01051084 0.107903115 0.09559016 0.050797876 -0.04367381
0.0749596 0.054954067 0.058425132 -0.06113151 0.025084559 0.100774854 -0.075828634 0.1044588
-0.07311379 0.03129998 0.066342585 -0.018918362 -0.10218064 0.08916894 0.08140298 0.08527908
-0.12059239 -0.10662115 0.007085648 0.07323537 -0.12703387 -0.015886834 0.060011506 -0.026206667
0.0016019806 -0.028720284 -0.0094852075 -0.041180674 0.01828367 -0.02865457 0.0052126395 0.0143273575
-0.04352769 0.038525797 -0.37448293 -0.08849494 -0.064742856 -0.040585127 -0.017478758 0.042563923
-0.036231663 -0.06536635 -0.021484721 0.032796446 0.10576379 0.10071921 -0.074743904 -0.10326626
-0.010430154 -0.07358097 -0.057672415 0.0013449095 0.87753195 0.12046988 0.0030536633 0.27172586
0.8471621 -0.092560895 -1.3426206 0.28155816 -0.6743063 0.11140798 0.7949957 -0.13185968
0.014730638 0.01978186 -0.020650681 -0.5871279 -0.08550583 0.07475453 0.020994434 -0.050819814
-0.06866288 0.058594212 0.039912507 0.1335411 -0.068994254 -0.13291803 -0.101274535 0.664223
-0.32767925 0.004892325 -0.014793474 -0.34453177 0.10317417 -0.0485601 0.060676783 -0.115248464
-0.043723628 -0.024890998 -0.05968283 -0.039875492 0.035989635 -0.012634877 -0.05699019 0.0074553746
-0.024087261 0.5235483 -0.018442638 0.039664537 0.009981858 0.022090469 0.12029111 -0.09355571
0.02620556 -0.0047686775 -0.0479251 -0.05990448 0.02831556 0.34914896 0.1264596 0.07056175
-0.13831325 0.08329498 0.217554 -0.050675884 -0.0071402527 -0.10911345 0.3498591 -0.10848312
0.010573797 0.15763463 -0.080665566 -0.031689733 -0.3479253 -0.031170098 0.08816283 -0.88638794
-0.12354977 0.16449064 -0.0015447635 -0.029451167 -0.011074744 -0.03060696 -0.005659747 0.088844895
-0.16388075 -0.7172228 0.082040064 -0.004833668 -0.01895906 -0.03712224 -0.06427669 -0.20295314
-0.063431524 0.018423969 1.4365524 -0.09379402 -0.0406517 0.6833654 0.10882254 0.12595774
-0.010010013 -0.099866144 0.0024557067 0.05283979 -0.0074528167 -0.018532833 0.0066074007 -0.034161653

rnn.bias_ih_l0 f4 [512]
00000000: 75af e4bd f5b7 cc3e 24fc edbc 23a6 f2bd
00000010: b9f8 1dbd dad7 713e a724 063b 9863 95bd
00000020: 0db0 413c 03be 31bd dfca 993d 693e e1bd
00000030: 5785 763d 3799 a43d c411 2bbd fe5e f2bd
00000040: 7574 e1bc e0c4 f4bd adb1 cabd e185 e53c
00000050: 6724 9abf 2b2f 36bd 64d9 08bd fac5 173e
00000060: 5d77 bd3d 69af ebbd 06bf 3dbf a6de 81bd
00000070: f181 07ba 96c8 423d 72b9 9fbe c084 a83d
00000080: 0148 e83d e242 da3b 33b8 a9bd f2b2 c43d
00000090: d9b4 a83d c44d 423e 0858 8e3c 335c 2abe
000000a0: 94ff 453d 1f24 e43c e490 bdbc 1b7b c7bd
000000b0: 5f97 bc3e f584 f23c 89b8 1ebd e8cb 553e
000000c0: 686d c4be 8f62 3fbd 19bc 91bd 0be6 f53d
000000d0: e328 133e 49fe 053e b164 53bc 78eb 00be
000000e0: 7f91 3c3e 56d1 26be 9a7e a83d 5c50 00bf
000000f0: da76 4dbd bfb5 9dbd 4970 963c 5e5a d43a
00000100: 4354 21be 7a0e 8e3e af5a 643b 4712 d4bb
00000110: 2e41 92bd 6ccf e1bd ad5c 0abd fe05 61bd
00000120: a147 26be 04e4 8b3d a543 7dbe adb2 30bc
00000130: b562 9bbd fa40 093e 0f5e 30bd 7ed9 49bd
00000140: a12b 3fbe b196 8ebc 25ab e83e b2d1 57bd
00000150: c387 df3d b690 fb3d e4a1 e93e 5fbe 12be
00000160: 1c9b 95bd 0cd9 b7bd 735d b6bc 7edf b6bd
00000170: 14ef f6bb f036 74bd 1b77 64bd cb47 8a3c
00000180: 1c24 94be 3747 c13d 0e2f 083e caa8 e53c
00000190: cb0e b13c 4c3f d3bd 1ff7 12bf a994 e4bd
000001a0: 6c36 6cbf 0d86 383e 8a4e 5abe 50e1 723c
000001b0: 38b9 293d 75f1 c23d 9a26 aebd 6632 be3d
000001c0: 7776 bebe d38c a5bd 20a5 c8be 93a6 053e
000001d0: b5a7 d03e f408 cd3e 31cc 223e 63ce 0dbd
000001e0: e850 853d dbf7 353d 25c0 1fbe 40cc 37bd
000001f0: b567 e2bd 08ce a6be b6d0 92bd 3fd2 8f3c
00000200: ecc0 973c 221f 403d 541b fabd fb07 aabc
00000210: a583 543d 4467 65be 8cd4 2a3e 7fc8 8dbd
00000220: ff2c 41bd cb1c f6bb d55d 913d d500 cfbd
00000230: 83ec b63c bbfb debd d60f 00bd 6696 55bd
00000240: 1737 603c dedc 293d c4da 9c3c ca7b 01bc
00000250: 4652 d0bd 6d14 3b3d b128 9dbc fd7d c1bd
00000260: bb91 193e 763d bdbc 23ae 543e 54d4 033f
00000270: 6f41 b0bd c0a1 ffbd 76f5 5bbe 677a a73c
00000280: e0bb 11bc b8f2 28bf bcdd 97bd df2f 80bd
00000290: a9c4 8fbd c684 603d 785a bb3c 0009 a13c
000002a0: 2c9d 213c 9399 42bd 051d 75bd 77bc edbc
000002b0: 47d7 933e b4a0 a1bd 4e2a adbc fea5 82be
000002c0: f9d4 dcbe 554a 8d39 ffdd 0fbe 221b 13bd
000002d0: f3a6 c43d c598 e0bc e055 49bd 7400 d63c
000002e0: dbad 133e d4fb 55bd 31c1 59bd 500e 16bd
000002f0: 6274 913a 5881 30bb e202 25be 6f84 a63c
00000300: 208e cabd f63b 833f f0d7 9fbd 445d 093d
00000310: 8a8b 6bbd 4a75 a93b 1bda afbc e049 ddbd
00000320: 4665 fb3c 9ff4 293e f6e2 b73c 81da ad3d
00000330: d4b1 14bb 505f 59bf e283 9b3b 5b2b e7bc
00000340: ccbb 863c d1ec 4ebc c1cc 10bf bf39 183d
00000350: c473 913c 28ab a3bd 6a76 cbbe 1236 32bd
00000360: 4fde fc3b e3ef 343c 271d 803d c033 acbd
00000370: c6ce 02be a7b8 9c3c dc10 97bc 02df c23e
00000380: fa8c fd3d 0b1e d2be 2b07 ad3d 74ac 963d
00000390: d5fe 973d 48c6 d8bd a683 b73d 274f 72bb
000003a0: 91b3 04be 15b6 323f e4c1 40bd 4a6d e23b
000003b0: f57f 41be 55c3 7b3d 5fd3 053e 880a aebd
000003c0: e031 a33d 2346 14be 0f2d 853e d787 db3d
000003d0: f7d4 103e e227 953d fdee 84bb 116b ee3c
000003e0: 3849 a23d 95c0 823d 7a93 6fbb 1338 23bd
000003f0: 2695 42bd 89ac 053d 569a 1a3d 1ba7 e93c
-0.11166278 0.39984098 -0.029050894 -0.11848094 -0.03856728 0.23617497 0.0020468624 -0.072943866
0.011821759 -0.0433941 0.07509398 -0.10998232 0.060185757 0.08037036 -0.04176499 -0.118345246
-0.027521351 -0.119516134 -0.0989717 0.02801794 -1.2042359 -0.044478577 -0.033410445 0.14821616
0.09251282 -0.11508066 -0.74119604 -0.06341295 -0.0005169204 0.047554575 -0.3119617 0.08228445
0.11341859 0.006660805 -0.08287086 0.096044436 0.08237619 0.18974978 0.017375961 -0.16636734
0.04833944 0.027849255 -0.023140378 -0.097402774 0.36834237 0.029604414 -0.038750205 0.20878565
-0.3836472 -0.046724852 -0.07115955 0.12006768 0.14371066 0.13085283 -0.012902425 -0.12589824
0.18414877 -0.16290793 0.08227272 -0.5012262 -0.050162174 -0.07700681 0.018364089 0.0016201248
-0.157548 0.2774542 0.003484409 -0.0064719054 -0.07141338 -0.11025891 -0.03377979 -0.054937355
-0.16238262 0.068306 -0.24732836 -0.010784787 -0.07587186 0.13403693 -0.04305845 -0.049279682
-0.18668987 -0.01740584 0.45443073 -0.052690215 0.10914566 0.12283461 0.45631325 -0.14330433
-0.073049754 -0.08976945 -0.022261357 -0.089293465 -0.0075358246 -0.059622705 -0.05577765 0.016879937
-0.289338 0.09437411 0.132992 0.028034586 0.0216135 -0.10314807 -0.57408327 -0.11161167
-0.9227054 0.18019886 -0.21319023 0.0148242265 0.041436404 0.095187105 -0.085034564 0.092869565
-0.37199757 -0.08083501 -0.3918848 0.13051824 0.4075295 0.40045893 0.15898205 -0.034620654
0.06509572 0.044425827 -0.15600641 -0.044872522 -0.11054937 -0.32579064 -0.07168715 0.017556308
0.01852461 0.04690469 -0.12212244 -0.020755759 0.05188336 -0.22402674 0.16682643 -0.06923007
-0.047162052 -0.0075107566 0.07097975 -0.101075806 0.022329574 -0.108878575 -0.031265102 -0.052145384
0.013685009 0.0414704 0.019147284 -0.007903049 -0.101719424 0.045673776 -0.019184442 -0.094478585
0.14996998 -0.023100596 0.20769553 0.5149586 -0.086062305 -0.12482023 -0.21480355 0.020444108
-0.008894891 -0.6599536 -0.07415339 -0.06259131 -0.07019932 0.054814123 0.022870287 0.019657612
0.009864133 -0.04750974 -0.05984213 -0.029020531 0.2887518 -0.0789198 -0.021138337 -0.25517267
-0.43131235 0.00026948997 -0.14049529 -0.035914548 0.096021555 -0.027416596 -0.049154162 0.026123263
0.1442179 -0.052242115 -0.053162757 -0.036634743 0.0011097307 -0.0026932564 -0.16114381 0.020326821
-0.098903894 1.0252674 -0.07804859 0.03353621 -0.05750612 0.0051714526 -0.021466305 -0.10805106
0.03068794 0.16597222 0.02244709 0.08488942 -0.0022689002 -0.8491106 0.0047459463 -0.028218916
0.01644697 -0.012629704 -0.5656243 0.037164446 0.017755397 -0.0799163 -0.3973878 -0.043508597
0.007716931 0.011043522 0.0625556 -0.08408308 -0.1277419 0.019131018 -0.018440656 0.38060766
0.12380405 -0.41038546 0.08448633 0.073571116 0.07421652 -0.10584694 0.08960657 -0.0036973448
-0.12959124 0.69809085 -0.04705991 0.006910001 -0.18896468 0.06146558 0.13068913 -0.084981024
0.07968497 -0.1447988 0.2601094 0.10719269 0.1414374 0.07282998 -0.00405681 0.029103788
0.079241216 0.06384388 -0.0036556409 -0.0398484 -0.04750552 0.032635245 0.037744842 0.028522065

rnn.bias_hh_l0 f4 [512]
00000000: 361b 1bbd bff9 d83e 9162 893d 9ffa 2b3b
00000010: a903 8ebd 0248 863e 9667 d83d f543 3ebd
00000020: b170 603d 49da 0ebe 0cc0 27bc 68eb 133d
00000030: 9fe5 ce3c 6934 c139 6741 be3c 783b 84bd
00000040: c8a3 9a3c 638b 07be 794b 05be 771c e2bd
00000050: e84d 8cbf 9fda 19bd 86f1 e0bc e0e5 613e
00000060: 59eb 2a3e 12a2 22be 997d 1cbf 2565 e7bb
00000070: 7ca8 033e 5800 e83d c6b5 a7be 888f afbc
00000080: a693 a63c a42f 363d 88d0 25be 36be d93d
00000090: 73f3 a7bb 24ed 853e 5441 4e3c e397 f1bc
000000a0: 1a3b d83c 692b 31bc ddb9 b53c 57e3 36bc
000000b0: 290e 823e 4d3e 59bc d958 8b3d 86d2 793e
000000c0: b967 87be 6c55 de3c ee33 13be 9f10 983d
000000d0: 6ac9 3a3d 89c2 d7bb 0c7f a5bc afbd 93bd
000000e0: 0f51 753e 0555 0cbe 3817 8ebd 884b efbe
000000f0: 05e8 00be 0c21 4ebc ad39 05bd e2ff 89bd
00000100: f691 92bd e648 df3e 1cb5 ad3c 2be0 34bd
00000110: 0842 363d 2b51 f3bd b11b 933c dc43 89bd
00000120: 9eac 39be c1cd 0e3d c7f3 a0be ab4a f5bd
00000130: 85eb 793d 4bbd 223e 6d03 dabd fda2 353d
00000140: 85ba 1ebe 804c 473d 5db1 b23e ae88 debd
00000150: 25bc 82bc ad9f 1b3e 763b 003f 109d 943c
00000160: 7205 6dbc 7907 f1bc 6faa 81bd e061 93bd
00000170: a756 a73d 1bd1 a83c 7e94 763c 5e59 fb3d
00000180: 31ad acbe c8d1 e53d cb88 a5bb 3caf 863c
00000190: 9fc2 473e 2383 06be 524a 22bf 5cfc 16bd
000001a0: 0012 5fbf 4d7a 813e 4165 6bbe eaf9 92bd
000001b0: a946 d6bd 0de7 0c3e f25d e4bc 2cf6 423d
000001c0: 87b2 efbe 4edb 763a f5ad 0fbf f7ce 133c
000001d0: f93a fb3e a041 de3e 48df 573e 7aba 91bd
000001e0: 9dcc 883d 2084 233d 8c3a 9abe 776d 3cbc
000001f0: 8b29 2cbe 3923 a5be d50a 61bd a88b d3bc
00000200: d7b7 13be 7e12 a7bb aa12 7dbd d27e 99bc
00000210: 968f 463d f85f 85be 69e4 0e3d faf4 7b3b
00000220: 66bc 8cbd af15 3a3d 1020 3d3b 6c32 7fbd
00000230: b6df 8fbd ede0 acbd 20fa dbbd 7479 1abd
00000240: a4bb 003e d720 a73c 01bc b9bd db57 61bd
00000250: b148 bfbc 758f 043e 4251 90bc aa23 c7bd
00000260: 0fce 7fbc 1ca6 09be b188 c13e 3db6 f73e
00000270: 4984 8dbc 8235 90bc ba5f 1fbe 648e b6bd
00000280: f2f6 aa3d 9ce3 0cbf 4284 fbbb 4fdb ffbd
00000290: d29e 953d 2c0c 923d 3a58 a43d 847f b03b
000002a0: 0c22 463c fa6d 8c3c 078b 5a3d 3825 0bbe
000002b0: 7c47 973e 6786 ebbc 6327 4d3d a524 06be
000002c0: 5fda b3be da39 eb3c fc65 c3bd bb9c 333d
000002d0: a890 b93d 614e 5f3d 9d52 583c d577 2abc
000002e0: f683 1a3e 33f7 5a3d 3a96 9cbd 03a1 8e3d
000002f0: f7fd e0bc 3e14 573d 2dcb aebd c1dd 86bc
00000300: cf1c 1dbe e827 753f 2864 96bd 34ba d63d
00000310: dfff 97bc 4a43 953b 91f5 59bc 0a18 3fbe
00000320: d166 5f3d 4bed 1e3e a8f4 eb3d 3250 20bd
00000330: ddd1 be3c 131a 44bf 741c fabc 3279 603d
00000340: 0d02 283d fc31 bd3b 753b 1cbf 8f2e 083d
00000350: ca9a 93bd 47c0 eebd 5c0d dbbe 052d b3bc
00000360: dfe6 7cbd 64e3 72bd 2f69 653c 6094 09bd
00000370: 4c82 5dbd 6edb 323d 725c 9ebd 0513 c13e
00000380: b45f 03bd c3bb d4be 1c7e 2a3e fbf3 d1ba
00000390: d77e cd3c 0ebe 763b 91ed c53d 4b26 4c3d
000003a0: c69a fabd f002 213f 1caf 583c 9c42 bd3d
000003b0: e3e2 dfbd 1766 0f3e 2054 e23d 3eff a8bc
000003c0: fad4 073e 76f8 debc a296 ab3e 2996 113e
000003d0: efc0 ca3c 57e3 3ebb 85ed 91bd b846 183e
000003e0: ff91 a73d fbc4 973c 3684 1f3c 5cb2 0abd
000003f0: b2fe 9d3d 2a87 9f3d c8f7 4fbd d48d 64bd
-0.037867747 0.4237804 0.06708253 0.002624191 -0.06934292 0.26226813 0.105666324 -0.046451528
0.05479497 -0.13950457 -0.010238659 0.036113173 0.025255976 0.00036850877 0.023224546 -0.06456655
0.018876925 -0.13236766 -0.13017072 -0.110405855 -1.0961275 -0.03756201 -0.027458917 0.22060347
0.1669134 -0.15882137 -0.61129147 -0.007061618 0.1285724 0.113281906 -0.3275587 -0.021430746
0.020334076 0.044479027 -0.1619283 0.10631983 -0.005125457 0.26157486 0.012588818 -0.02949137
0.02639537 -0.010813572 0.022183353 -0.0111626005 0.25401428 -0.013259483 0.06804056 0.24396715
-0.26446322 0.027140342 -0.14375278 0.07425045 0.04560224 -0.0065844697 -0.020202182 -0.07213914
0.23956703 -0.13704307 -0.069380224 -0.46737313 -0.12588508 -0.012581121 -0.032525707 -0.06738259
-0.07156746 0.43610305 0.021204524 -0.044159096 0.044496566 -0.11880716 0.01795754 -0.06702396
-0.18132254 0.03486419 -0.31435987 -0.119771324 0.061015625 0.15892522 -0.10645185 0.04434489
-0.15500839 0.04865694 0.34900942 -0.10865913 -0.015958855 0.1519763 0.5009073 0.0181413
-0.01446663 -0.029422509 -0.06331336 -0.071964025 0.081708245 0.020607522 0.015050052 0.12272905
-0.33725885 0.11221653 -0.0050517074 0.01644098 0.19507836 -0.13135962 -0.63394654 -0.036861762
-0.8713684 0.2528862 -0.22987844 -0.071765736 -0.10462696 0.13760014 -0.027876828 0.04759805
-0.46815893 0.0009416834 -0.5612481 0.009021512 0.4906843 0.43409443 0.21081269 -0.07115646
0.06679652 0.039920926 -0.30122793 -0.011500708 -0.16812722 -0.32253435 -0.05494197 -0.02582343
-0.14425598 -0.00509864 -0.061785378 -0.01873723 0.048476778 -0.2604978 0.034885798 0.0038445578
-0.06871872 0.045430835 0.0028858222 -0.062303945 -0.07025091 -0.08441339 -0.10741067 -0.037713483
0.12571579 0.020401401 -0.09069062 -0.055015426 -0.023350092 0.1294535 -0.017616872 -0.09723599
-0.015613093 -0.13442272 0.377996 0.48381224 -0.017274993 -0.01760364 -0.1556386 -0.089138776
0.08347882 -0.55034804 -0.0076756785 -0.12493002 0.07305683 0.07131228 0.080246404 0.005386295
0.012093078 0.017142285 0.053355243 -0.13588417 0.29546726 -0.028750611 0.05008639 -0.13099916
-0.3512754 0.02871411 -0.09540936 0.04385064 0.09060794 0.054518107 0.01320329 -0.010404547
0.15089402 0.053458404 -0.07645841 0.06964304 -0.02746485 0.05250954 -0.085348465 -0.016463162
-0.15343021 0.9576402 -0.07343322 0.10484734 -0.018554626 0.0045551406 -0.0133031765 -0.18661514
0.054541413 0.15520208 0.11521274 -0.03913898 0.02329343 -0.76602286 -0.030531146 0.05480308
0.04101758 0.005773781 -0.61028224 0.033247527 -0.07207258 -0.11657768 -0.4278363 -0.021872053
-0.061743613 -0.059298888 0.0140021285 -0.033588767 -0.05407934 0.043666296 -0.07732476 0.37709823
-0.03207369 -0.415495 0.1664967 -0.0016018146 0.025084896 0.0037649903 0.09664453 0.049841207
-0.12236552 0.6289511 0.013225343 0.0924122 -0.10931947 0.14003788 0.11051202 -0.020629521
0.13264838 -0.027218085 0.3351336 0.14217438 0.024750201 -0.0029127204 -0.071253814 0.14870727
0.081821434 0.018526545 0.009736111 -0.033861503 0.07714595 0.077894524 -0.050773412 -0.05579932

rnn.weight_ih_l1 f4 [512, 128]
00000000: ea50 753d 6908 83bf 57fa 013f bea2 243e
00000010: 1444 f9bc 76d5 473f 166a 453d a7f6 a83d
00000020: e260 963c fe15 fc3c 3541 c9bd 6f62 cf3d
00000030: 1a4a ca3d ec51 4d3d cb67 0cbe bfcd 983c
00000040: 8ca1 023d 50c7 143e ea2b 103e 56db 293c
00000050: 1d16 1abf 2b7b c23d 081c e9bd b550 1bbe
00000060: 0c4a 79bf c680 d93e 6476 68bc c7a7 7bbf
00000070: c81d 873f d10d c43d 46df 8cbf 2b8b 48bc
00000080: 8f9a db3e 0ff6 e7be 5ce6 c83d c843 b3bd
00000090: d431 ecbc 649d ad3c 5fab 2d3d 5453 bfbd
000000a0: c734 c83d e3fe 0f3e 42dc 8c3d c705 c83d
000000b0: a0d8 d1be 4b37 8ebd 8e75 55bb bc3e 1abe
000000c0: dcce 833f 49a7 c7bb 4bb6 af3c 6ae6 6dbe
000000d0: f122 103e a7d9 273d 809f 36bd ee85 9a3c
000000e0: 16d0 1d3e 0da5 413d b782 2c3d 0dde 12be
000000f0: 91e8 333d a7a5 10be 7b1b ae3d acbe acbb
00000100: f559 92bd 2e79 83bf 9df0 d6bc 0ea6 663d
00000110: 419d bb3d 93d2 89bd 1429 21be 8eb6 473d
00000120: 7473 3e3c a081 183e 23b9 893f 704b 783d
00000130: f32f a23d a969 a1bd c30b 573d d8c8 aebb
00000140: 039a fb3c 9497 823b a2e8 39be 068e 9fbd
00000150: 8a31 5e3e 121a 69bd 32e1 cebf 0ea6 2b3d
00000160: f8c7 213e 9dd6 1d3d ca13 513e 7c50 443d
00000170: 8365 c43e 5ac9 c23d 2c87 1abd 1a85 a7be
00000180: 19bb 0b3e 1d71 e83e 79a7 12be 774e df3d
00000190: bcc6 64bd 15d9 16bd 9707 4abe d359 0d3e
000001a0: 8448 833e e7db 153e 7957 12be dbd6 9ebc
000001b0: 2127 943c 6b76 943b 2dde 653c a6ee 7d3f
000001c0: 7d31 99be 9234 b83d 68e4 b1bf 97e3 e33d
000001d0: 20ec 40bc 5ee4 a6bf 354d 4f3e 3fa9 92bc
000001e0: 456a b0bd 2cea 033e 606f de3d 8cf5 73bc
000001f0: c971 6ebd 56ff aabe 5e7d 0e3e b928 7bbc
00000200: 8bd6 f5bc d075 bdbf 738a fc3e 6f4f 29bd
00000210: ea43 26be 1d49 293f 5392 17be b904 b03d
00000220: 368c f6bc 7418 083c 9ce5 bb3c 947b 803d
00000230: 4a7a 443e 2458 abbc b24e 34bd 98fc 513d
00000240: 0e1f e5bc ae13 46bd 0177 013d ddda c6bd
00000250: 7b52 f1be 64f5 08be e93d 463d 408f 15bf
00000260: e101 a6bf ff80 033f 6919 243e 9731 b2be
00000270: 0f0d e23f 9dcd 1f3c b36f 0b3e 593b a6bc
00000280: e504 c93e 20b9 1bbf 4c82 c8bd 6efb 973f
00000290: 4200 6bbd 8c68 9f3e 9a97 e4bd 7c9d c93d
000002a0: a198 3a3c bc18 c4bc 290e 953d e22f 023e
000002b0: 568d 58be 80e8 1f3e 847d 5bbd dc51 aebd
000002c0: eec1 be3f baae 04be 2fda bebd d7e5 10bd
000002d0: eedc 8fbe 7504 06bd 018b e43c c3bb 40bb
000002e0: 00e8 a33d 600e 673b 7ae2 5a3d a2d4 f9bf
000002f0: 0fe6 99bb 221d dfbc 4e14 4a3c 2050 213d
00000300: 462f 07be 67f1 25bf c9a4 ccbb 6d60 98bd
00000310: 5743 433d 2e93 3cbd 3515 17bd 3327 003d
00000320: 5081 ffbd 6cf3 c83c 5e69 003f 99e9 0c3e
00000330: 8cde 13be d707 313f bc4b c43c b168 c03d
00000340: d4e3 9dbc 717d bd3b 1798 66bf 79b5 bebd
00000350: 1c94 823e e20e 37bb 2406 7cbf 5c18 d9bc
00000360: 34aa a8bd b4dc 3dbd b096 1ebc 8c9d 1c3e
00000370: 0de5 2f3f b312 1f3d 81c2 14be 2eac 353e
00000380: c678 33be 6c79 7b3f 47c2 8b3c be6a d53d
00000390: 8437 a83f 7e53 02bc 1fba fdbd c820 713e
000003a0: b8ef f33f c69a e83e 596d 02be f054 0b3e
000003b0: 86a4 773d 0859 603d afa3 543c bb7b 733f
000003c0: 453c 8abd 2ace ce3d 0d05 50bf c5fa d9bd
000003d0: 8d56 ae3e e80b 9bbf 664e 76bf 3d4d ac3d
000003e0: 1050 393d cc45 013c 2eca 14bc ebdc ed3d
000003f0: 6c84 6fbd 27db f33c 27df c13d 621d df3a
0.05989162 -1.0236942 0.50772613 0.16077706 -0.03042797 0.7806009 0.048196875 0.0825017
0.018356744 0.030772205 -0.098268904 0.101261966 0.09877415 0.050126955 -0.13711469 0.018652795
0.031892344 0.14529157 0.14079252 0.010367235 -0.6018999 0.09496149 -0.113823 -0.15167506
-0.9737861 0.4248106 -0.014188383 -0.9830288 1.0555964 0.09572948 -1.1005638 -0.0122402115
0.42891356 -0.45304915 0.098095626 -0.087531626 -0.028832354 0.021193214 0.04239976 -0.093420655
0.097756915 0.14062075 0.06877948 0.09766727 -0.40985584 -0.0694414 -0.0032571289 -0.15062994
1.0297503 -0.00609294 0.021449229 -0.23232427 0.14075829 0.040979054 -0.044585705 0.01886269
0.1541141 0.047276545 0.042116847 -0.14342518 0.043922964 -0.14125691 0.08501335 -0.0052717533
-0.07146064 -1.0271356 -0.02623778 0.056310706 0.09160853 -0.06729617 -0.15738326 0.048758082
0.011624206 0.14893198 1.0759624 0.060618818 0.07919302 -0.07881481 0.05250145 -0.005334001
0.030713087 0.0039853547 -0.18155149 -0.07790761 0.21698585 -0.05690963 -1.6162474 0.04190641
0.15798938 0.03853475 0.20417705 0.04792832 0.38358697 0.09511061 -0.037726566 -0.32718736
0.13645591 0.453988 -0.14321698 0.10903638 -0.05585359 -0.03682812 -0.19729458 0.13803796
0.25641263 0.14634667 -0.1429118 -0.01938956 0.018085064 0.004530718 0.014030022 0.99192274
-0.2992057 0.08994402 -1.3897829 0.11127394 -0.011775047 -1.3038442 0.20244296 -0.017902968
-0.08614019 0.12882298 0.10861087 -0.014890086 -0.058213983 -0.3339793 0.13915011 -0.015329533
-0.030009529 -1.4801579 0.49324378 -0.04133552 -0.16236845 0.66127187 -0.14801912 0.08594651
-0.030096155 0.008306611 0.022936635 0.06273571 0.19187275 -0.020916052 -0.044020362 0.051266283
-0.02796891 -0.04835861 0.03160763 -0.097097136 -0.4713324 -0.13374859 0.048398886 -0.5842171
-1.2969323 0.5136871 0.16025318 -0.3480346 1.7660235 0.009753612 0.13616829 -0.020291971
0.39261547 -0.60829353 -0.09790477 1.1873605 -0.057373293 0.3113445 -0.11161728 0.09844491
0.011388929 -0.023937576 0.072780915 0.12713578 -0.21147665 0.15616035 -0.053586498 -0.08511707
1.4902933 -0.12957278 -0.09318959 -0.035375442 -0.28098243 -0.032719094 0.027898313 -0.002940879
0.08003235 0.003525637 0.05343864 -1.9518015 -0.0046966146 -0.027235571 0.012333943 0.039383054
-0.13201627 -0.64821476 -0.00624523 -0.07440267 0.047671642 -0.0460388 -0.03688546 0.031287383
-0.12475836 0.024530135 0.5016078 0.13760985 -0.14440364 0.6915259 0.023961894 0.09394968
-0.019273676 0.005782776 -0.9007582 -0.09311957 0.25503623 -0.0027932455 -0.9844687 -0.026500873
-0.08235589 -0.046353057 -0.009679481 0.15294474 0.6870888 0.038836192 -0.14527322 0.17741463
-0.1752654 0.9823215 0.017060412 0.1042075 1.3141942 -0.007954476 -0.123890154 0.23547661
1.9057531 0.45430583 -0.12737025 0.1360662 0.060459636 0.054772407 0.012978478 0.9511067
-0.06749777 0.100979164 -0.81257707 -0.106435336 0.34050408 -1.2113008 -0.96213377 0.084131695
0.04524237 0.007890176 -0.0090814065 0.116144024 -0.058475897 0.029767586 0.09466391 0.0017022307

rnn.weight_hh_l1 f4 [512, 128]
00000000: bd0e 22be 5247 c1bd a5ea 873e c2d2 593e
00000010: d878 85be db13 7abe 08fb 8f3e a978 7abe
00000020: a518 6dbd 50cc 86bf 16ee 3f3e bf84 173e
00000030: 107a 083e aab7 d33e 9d10 f9bd 5c39 8e3e
00000040: c22a 68bd 2dd7 49bd 56ba d3bd 1a98 623d
00000050: 6424 86bd 7b45 373e 57a8 22be a934 1b3c
00000060: 54a3 4d3e 1ccd 5d3e 46d3 c93e 19c2 f5bd
00000070: d167 92be 5be3 fbbc 869c 02be b749 9cba
00000080: 45fb d7bc 582d 293d 382b 03be d16e eebc
00000090: 5ec2 62bd 846f 25be 33f5 e6bd 7ba0 20bd
000000a0: 2c1f 67be 24f3 afbd 85e9 6abe 0ad4 2e3b
000000b0: 7957 b8bd 8382 dabc 5f90 6b3e 77e7 88bd
000000c0: 7bd0 bbbb 4b24 c3bd faa6 e83c cb3d 58be
000000d0: 7ebb 2dbe c6e5 2ebf fb79 433e dce9 a03d
000000e0: 6b0c 32be d9a2 5c3e a6a2 093f 2bee 0dbf
000000f0: 99dd 9ebe 4930 9e3d 234a 983e 50d8 11be
00000100: 0611 823e 6041 45be 41c6 a4bb 7279 d8be
00000110: ad39 8dbe 6492 09bf 1e8f 99be 9296 653e
00000120: 690a 173e 4a81 3bbe bb47 793d e51a 1bbe
00000130: 0ea5 733e 8391 25be 49d6 823e b6f4 91be
00000140: bce9 50be c1c2 b53d 2d57 0abf 17d0 193d
00000150: a458 30be 8ae6 2f3e 33b3 693d e1c6 4ebd
00000160: 24a7 fa3d 102f 31be d912 503e 7538 89be
00000170: ab57 86bc 7b70 09be 7ac5 f0bd 3f98 4fbc
00000180: 94d5 963e a7d7 b2be e29d 97bd 9a76 b9bd
00000190: 0551 fbbd 00a3 d3bd 99cb babd 6fd2 36be
000001a0: 068b 7b3e 7126 a4bd 3ef9 a33e a380 86be
000001b0: bf22 b2be 7473 4f3d 449c 4fbe 0b99 ad3d
000001c0: 445d b4be 8ffa d4bd a485 883e 048d 453e
000001d0: 9d8d 1bbe 11c2 67be 0764 87be 256d 3c3e
000001e0: 093f 4e3e f515 3d3e 7792 d83d fe87 68be
000001f0: 0f4c 9c3e 7505 2bbe 1ff9 ebbe 0d0b ad3d
00000200: 4966 b33e 7119 3c3c 3898 b0be b5aa 0abe
00000210: eef7 59be be57 cabe cdc7 9abf ad13 aebe
00000220: 7020 e73e 4608 91bf 59a0 30bd 8fa3 603d
00000230: 8770 98bd af20 063f f97b d3be e92d c03e
00000240: e3ce 183e 6bc6 b6bd a8ad 153e 6543 c2bd
00000250: fa9d 73be a5d1 073d a794 dd3d 2c87 923e
00000260: 0e1f d7bc 8b86 113e 69e8 bfbe 59df 1f3f
00000270: 733a 1cbf 068e 183f cea3 743e 0442 10bd
00000280: 748d e23d 2533 67bf 6c0a 08be bcaf 5fbf
00000290: abea 443f 47dd 0ebf 1de2 ed3d 21c6 85be
000002a0: 1e9a acbe 4e12 15be 7800 76bf a06d 293e
000002b0: ffe9 093e c5a1 693f 5ea4 c73d 55c9 3dbd
000002c0: 2eb1 e13c 7f50 44bf 93ea 233f fdc8 c5be
000002d0: d99d b1be 1b82 ffbd 10b3 a03d 98cb d1be
000002e0: 52ed d5bd 780a 493e 018a 0fbf 2b6d 62bf
000002f0: 16e5 5abd 4e16 333f b719 003f cda1 023f
00000300: 6709 2cbf 9156 49bc 808e ea3e 7be2 aebe
00000310: c743 e7bd 5740 b93c 2f02 febd 239a 653c
00000320: 0f15 45bf 2f50 cdbe 7bf7 5c3f 2a15 383f
00000330: 5c92 493f faa3 b0be 812a 483f cca2 cabe
00000340: 52cb 223f 17fe a73e 9f2f 283f c297 463f
00000350: 28b7 8bbe e462 a33e 0845 5d3f 9be1 523e
00000360: 28a6 e03e f61c 35be 9346 f83e a375 823e
00000370: f12b 60be cab2 96be 5bc3 873e 29a5 b13e
00000380: 8f08 dcbe da5d bcbe 4a58 d9be 30b2 48be
00000390: 57e8 23be 9d45 a73e c51a a0bd 2511 65be
000003a0: 71c4 a3be 6766 0dbe 1372 013f 01a5 e8bd
000003b0: be5c e2be 4f94 ff3e 904b 14be 1bf1 5ebe
000003c0: a18e d0be 97aa 09be 1b45 993e 6c75 643e
000003d0: ed47 063e cee1 8ebe 849b 3cbf 4afb 893e
000003e0: 052b ad3e 5215 afbb f320 873d ddbc 05bf
000003f0: f370 70bd b8d5 06be d7b5 80bd 0240 3abe
-0.15825935 -0.094374314 0.26546207 0.21271804 -0.2606876 -0.24421637 0.2812121 -0.2446009
-0.05788483 -1.0531101 0.18743166 0.14796732 0.13327813 0.41351062 -0.12161372 0.27778137
-0.056681402 -0.049277473 -0.10338275 0.055320837 -0.0654991 0.17897598 -0.15884529 0.009473004
0.20081836 0.21660274 0.39419 -0.11999912 -0.2859483 -0.03074806 -0.12755021 -0.0011923824
-0.026364932 0.04130301 -0.12809455 -0.029105576 -0.055361144 -0.16155821 -0.11277237 -0.039215546
-0.22570485 -0.08591297 -0.22940643 0.0026676678 -0.09001059 -0.026673561 0.23004292 -0.066847734
-0.00573164 -0.09528407 0.028399933 -0.21117322 -0.16966054 -0.68319356 0.190895 0.07857105
-0.1738755 0.21546496 0.53763807 -0.5544154 -0.3102844 0.077240534 0.29744062 -0.14242673
0.25403613 -0.1926322 -0.0050285165 -0.42280155 -0.27583066 -0.53739 -0.29992002 0.2242072
0.14750065 -0.18311039 0.060859423 -0.15146978 0.23793432 -0.1616879 0.25554112 -0.28507012
-0.20401663 0.08875037 -0.5403927 0.037551966 -0.17221314 0.17177787 0.057055663 -0.050482634
0.12238911 -0.17303109 0.2031969 -0.26800886 -0.016399225 -0.13421814 -0.11756416 -0.012670576
0.29459822 -0.34930155 -0.07403161 -0.090558246 -0.122713126 -0.10333824 -0.091208644 -0.17853712
0.24564752 -0.080151446 0.32026094 -0.26270017 -0.34792134 0.050647214 -0.20274454 0.08476456
-0.35227406 -0.10399353 0.2666446 0.19292074 -0.1519074 -0.22632624 -0.26443502 0.1840101
0.20141234 0.18465407 0.10574811 -0.22708127 0.30526778 -0.167013 -0.46088502 0.084493734
0.35038975 0.011480675 -0.34491134 -0.13541682 -0.21285984 -0.39520067 -1.2092224 -0.33999386
0.45141935 -1.133065 -0.04312167 0.05484348 -0.07443338 0.5239362 -0.4130552 0.37535027
0.14922671 -0.08924564 0.14617026 -0.09485511 -0.23790732 0.033158917 0.10819369 0.28618753
-0.026259925 0.1421148 -0.37482002 0.62450176 -0.61026686 0.5959171 0.23890612 -0.035219207
0.11062136 -0.90312415 -0.13285226 -0.87377524 0.76920575 -0.5580639 0.11615393 -0.26127723
-0.33711332 -0.14557764 -0.96094465 0.16545725 0.13468169 0.91262466 0.097481474 -0.046334583
0.027550306 -0.7668533 0.64029807 -0.38629904 -0.3469074 -0.124759875 0.078466535 -0.40975642
-0.10445656 0.196329 -0.5606995 -0.8844783 -0.05344113 0.6995591 0.5003924 0.5102814
-0.67201847 -0.012288705 0.45811844 -0.34157166 -0.112922244 0.022613687 -0.1240276 0.0140138
-0.7698526 -0.40100238 0.86315125 0.71907294 0.7873895 -0.34500104 0.78189856 -0.3957733
0.6359149 0.32811043 0.65697664 0.77575314 -0.27288175 0.31911385 0.8643346 0.20593874
0.43876767 -0.17686829 0.48491344 0.25480375 -0.21891762 -0.2943328 0.26516232 0.3469632
-0.4297528 -0.36790353 -0.42450172 -0.19599223 -0.160066 0.32670298 -0.07817606 -0.22369821
-0.3198581 -0.13808595 0.5056469 -0.11359597 -0.44211382 0.49917838 -0.1448195 -0.21771662
-0.40733817 -0.13443981 0.29935536 0.22310418 0.13113375 -0.2790665 -0.736748 0.2694953
0.33821884 -0.0053431178 0.065980814 -0.5224131 -0.058701467 -0.13167465 -0.06284683 -0.1818848

rnn.bias_ih_l1 f4 [512]
00000000: 9b79 0cc0 ea15 d6bf 318d 00c0 a2b6 dbbf
00000010: 188c 06c0 3686 15c0 dad4 1f3e c491 04c0
00000020: 432a 10c0 d781 bfbe 6990 d1bf f393 13c0
00000030: da38 e5bf 5195 efbf bf24 1cc0 94ba dbbf
00000040: 219f 06c0 3d3c c8bf 1864 00c0 fe41 bdbf
00000050: ff11 03c0 ef4d c9bf ef08 19c0 1082 18c0
00000060: 0000 e8bf 136c acbf 1f3c adbf a8d2 c7bf
00000070: 59ea 623f d9fb a83f d83a fdbf b352 12c0
00000080: 0261 11c0 e7a6 d5bf d12a cfbf 974b fcbf
00000090: 0fa7 26c0 8389 dcbf 7f6e 08c0 1141 d7bf
000000a0: 1fb9 0ec0 493a 13c0 2a54 c8bf 4470 9ebf
000000b0: 9943 0fc0 1a77 19c0 360d c8bf e70b f4bf
000000c0: 4249 09c0 a707 f3bf 85af cbbf ddd9 b3bf
000000d0: 205d fdbf c3fc b4bf fd9b 08c0 718d e9bf
000000e0: 7b2c b4bf 9403 ffbf 5801 dabf c1f4 72bf
000000f0: b3b5 04c0 82f2 c9bf 6454 b7bf 5ede e5bf
00000100: 5730 1d3f 0e1a fcbf 4e2b 94bf 5842 713f
00000110: f79d babf 28e3 4f3e 8832 e2bf bc5d 04c0
00000120: bf29 b2bf 51c3 06c0 3f32 eebe aa9d 96bf
00000130: c5b1 cdbf 31aa d8bf c310 b1bf f465 04c0
00000140: dd16 c2bf e540 d8bf 3190 ed3e a1e3 e7bf
00000150: 5949 eebf 4075 f4bf 5512 fabf 483a 14c0
00000160: 8976 0ec0 6561 f6bf 44ea 0fc0 4814 92be
00000170: 17b2 04c0 7480 dc3d 62cb b8bf e67d 01c0
00000180: 63e9 b3bf a5b9 d2bf 1212 08c0 bb97 58bf
00000190: ce9b d5bf 8bb7 bbbf d786 f0bf 2074 10c0
000001a0: 9c08 d3bf f5e6 19c0 d3df f7bf a455 ebbf
000001b0: 08bf f7bf e5a4 0bc0 ff58 d9bf 39ae f0bf
000001c0: de64 cebf abb4 ebbf c3dc 53bf 7aba adbf
000001d0: d994 aabf bb19 19c0 8cf4 44bf 54b2 d3bf
000001e0: 4b1f f0bf c4db 04c0 f29c c8bf 00b5 f0bf
000001f0: 350a ecbf 6e38 15c0 a4b4 c4bf 3fed 01c0
00000200: f736 4fbf 210a bbbf 3037 52bf b9b5 88bf
00000210: 1c6c 8ebf cd93 20bf 3ba8 013f 26c9 5fbf
00000220: c584 6abf d52c f0bf fa2a adbf 7746 10bf
00000230: 81ce 56bf 14bb 91bf 5a4b 98bf 2a4c 6ebf
00000240: aab5 65bf f112 2bbf 91bd 27bf d06a 31bf
00000250: 9739 87bf b690 bebf 744d 21bf 6c71 79bf
00000260: e9b0 8abf 042e 68bf 7b92 f8be 99a6 54bf
00000270: 3bf0 8b3e d8ae a3bb f275 54bf b923 0abf
00000280: 06c4 a6bf ddc3 d0bf b985 a4bf e4c9 7abe
00000290: 1bd9 00bf fc0a a6bf e67f 75bf 4a45 cbbf
000002a0: a1ff 0ebf f92d 0dbf bb30 b9bf c731 14bf
000002b0: c6d7 80bf ac2c e1bf 549e 35bf d31a 86bf
000002c0: 7d83 e8bf 0ad3 0cbf 8b64 63bf 25b8 94bf
000002d0: ac39 59bf e4ba 93bd 9e60 31bf 9c65 b1bf
000002e0: 71d2 89be 698f 88bf 9aaa d7bf 95d8 a3bf
000002f0: 19d1 45bf c0af 7dbf 7a46 0abf 6ecc c5bf
00000300: 2cb9 853f 18e8 9cbf 53e2 8ebf 25fb 8a3f
00000310: 35c7 6bbf f484 2a3e 08f0 0fc0 2c79 93bf
00000320: da62 90bf 063b 19bf 5173 c6b9 bf37 8fbf
00000330: 1810 d0bf c170 a6bf 3524 64bf bd51 34bf
00000340: 11ba 16bf b444 32bf 3a07 d43e 22c2 82bf
00000350: f18a 5ebf fcb6 33bf 6e26 84bf 5016 42bf
00000360: 03a3 88bf cd50 b1bf 5d5d b5bf cda1 573e
00000370: 8229 86bf f8aa 713f 226d f8bf cb31 89bf
00000380: 1d75 97bf de53 65bf cb3d 22bf 0956 a7be
00000390: 2dd4 6abf 5598 3cbf df8a 80bf ef48 13bf
000003a0: ed4b 6abf 35bc 43bf 7b55 94bf 9f41 7fbf
000003b0: 4afc 06bf a2be 4dbf 537b 46bf cb4a 96bf
000003c0: 0fbc e6bf 4cc6 c5be d63f 15bf a4af a6bf
000003d0: 7ad4 dcbf edde 3abf 5af0 d5bf 6b46 9abf
000003e0: 90b9 39bf adf5 a5bf b5d1 78bf 08c7 55bf
000003f0: e846 38bf 01fb 9cbf 5a1c 903f 59e9 6cbf
-2.1949222 -1.6725438 -2.0086176 -1.716511 -2.1023006 -2.3363166 0.1560854 -2.0713968
-2.2525795 -0.37403747 -1.6372195 -2.305905 -1.7907975 -1.8717443 -2.4397428 -1.7166314
-2.1034625 -1.5643383 -2.0061092 -1.4785764 -2.0479734 -1.5726908 -2.3911703 -2.3829384
-1.8125 -1.3470482 -1.3533973 -1.5611162 0.88638836 1.3201858 -1.9783583 -2.2862976
-2.271546 -1.669156 -1.6184942 -1.9710568 -2.6039464 -1.7229465 -2.1317441 -1.6816732
-2.230049 -2.3004324 -1.5650685 -1.2378011 -2.2385008 -2.3978944 -1.5629032 -1.9066132
-2.1450963 -1.898671 -1.5912939 -1.4050862 -1.9794044 -1.4139637 -2.1345208 -1.824629
-1.4076074 -1.9922967 -1.703166 -0.94904715 -2.07359 -1.5777133 -1.4322629 -1.7958486
0.61401886 -1.9695451 -1.1575716 0.9424186 -1.4579457 0.20301497 -1.7671671 -2.068221
-1.391899 -2.1056712 -0.4652271 -1.1766865 -1.6069876 -1.6926938 -1.383324 -2.0687227
-1.5163227 -1.6894804 0.46399072 -1.8116342 -1.8616134 -1.9098282 -1.9536844 -2.3160572
-2.2259848 -1.9248472 -2.2486734 -0.28531098 -2.0733697 0.10766688 -1.4437068 -2.0233092
-1.4055599 -1.6462904 -2.126103 -0.8460652 -1.6688173 -1.4665388 -1.879115 -2.2570877
-1.6487002 -2.4047215 -1.9365181 -1.838551 -1.9355173 -2.1819394 -1.6980284 -1.8803169
-1.6124532 -1.841451 -0.8275873 -1.3572533 -1.3326675 -2.3921955 -0.7693565 -1.6538796
-1.875955 -2.0759134 -1.5672896 -1.8805237 -1.8440615 -2.3315692 -1.5367627 -2.0301054
-0.80943245 -1.4612466 -0.8211546 -1.0680457 -1.1126742 -0.62725526 0.50647324 -0.87416303
-0.9160884 -1.8763682 -1.352874 -0.5635752 -0.8390885 -1.1385217 -1.1897995 -0.9308497
-0.8973032 -0.6682578 -0.6552363 -0.6930361 -1.056445 -1.4887912 -0.6300881 -0.97438693
-1.0835239 -0.90695214 -0.48549256 -0.8306671 0.2733172 -0.0049952082 -0.8299247 -0.5396076
-1.3028572 -1.6309773 -1.2853309 -0.24491078 -0.50331277 -1.2972102 -0.9589828 -1.588052
-0.5585881 -0.55148274 -1.4467996 -0.57888454 -1.0065849 -1.7591758 -0.70944715 -1.0476936
-1.8165127 -0.5500952 -0.8882529 -1.1618696 -0.84853625 -0.07213381 -0.6928805 -1.3859134
-0.26918367 -1.0668765 -1.6848938 -1.280047 -0.7727218 -0.990963 -0.5401379 -1.5453012
1.0447135 -1.2258329 -1.1162819 1.0857893 -0.9210084 0.1665228 -2.2490253 -1.1521354
-1.1280167 -0.5985569 -0.0003785142 -1.1188887 -1.6254911 -1.300316 -0.8911775 -0.7043722
-0.58877665 -0.6963608 0.41411763 -1.0215495 -0.8693076 -0.70201087 -1.0324228 -0.75815296
-1.0674747 -1.3852783 -1.4169117 0.21057816 -1.0481417 0.944015 -1.9408305 -1.0718321
-1.1832615 -0.89581096 -0.6337554 -0.32682827 -0.91730005 -0.7366994 -1.004238 -0.5753316
-0.91522104 -0.76459056 -1.1588587 -0.99709505 -0.5272871 -0.8036901 -0.7753193 -1.1741575
-1.8026141 -0.3862785 -0.5830053 -1.3022351 -1.7252343 -0.7299641 -1.6713974 -1.205274
-0.7254877 -1.2965599 -0.9719499 -0.8350682 -0.71983194 -1.22641 1.1258652 -0.9254356

rnn.bias_hh_l1 f4 [512]
00000000: bd2c 0ec0 99bc d2bf 2717 fcbf 64e0 e3bf
00000010: c371 03c0 10cf 15c0 ce67 463e a674 01c0
00000020: 878b 0dc0 1158 d3be 1d65 cabf a98d 15c0
00000030: 3476 f0bf 41df f4bf 548f 1dc0 b049 e6bf
00000040: 0fb6 05c0 0ddc bebf 991d 01c0 401d c3bf
00000050: b73f 03c0 e7b1 bdbf 0780 13c0 f089 1dc0
00000060: d029 e0bf a13f a7bf 8b0b aabf 32ac bfbf
00000070: 2960 533f 760a 9c3f 252d 03c0 e074 10c0
00000080: 9c03 09c0 0734 dfbf db64 bebf 21a7 f3bf
00000090: 5d51 2ac0 11a8 e7bf 8d0b 0ac0 b36c d7bf
000000a0: e8db 0fc0 27d2 15c0 ebdb bfbf 5df0 a1bf
000000b0: 5d07 0cc0 ce3e 22c0 58a5 c9bf 3b0f f5bf
000000c0: 21a1 06c0 91b1 ebbf 4f49 cabf 1f00 bdbf
000000d0: 228e fabf 0bee c2bf 448e 02c0 ffd2 e3bf
000000e0: fb8e b4bf 1162 f1bf ac14 e6bf 3468 69bf
000000f0: b0b6 03c0 6cd8 d0bf aa8d bfbf 522d ecbf
00000100: 303a 283f 4134 01c0 9f1c 9bbf 45a1 7e3f
00000110: a132 babf de33 8b3d 88e4 e8bf 3b03 05c0
00000120: 7569 b0bf dda1 07c0 deef d7be 4043 a6bf
00000130: b89d c5bf a121 cdbf 8fc3 afbf 67cd 04c0
00000140: 4700 c4bf 411e dfbf 4527 e83e f358 f1bf
00000150: e179 edbf 7294 fabf f03d f0bf 389b 17c0
00000160: 0893 0bc0 27ff efbf 59ca 0ac0 f3d5 80be
00000170: ebae f5bf d74b 093e 3227 c9bf 356d f6bf
00000180: 87b7 adbf 29b5 dcbf b84b 02c0 ef7e 49bf
00000190: 2994 cdbf f1b1 c7bf 5bf9 02c0 6ca5 13c0
000001a0: dcec c2bf 0790 14c0 c553 ecbf b81e f3bf
000001b0: 8275 f1bf 3a2e 08c0 2f0a dcbf 595a f1bf
000001c0: e231 d3bf afa2 e6bf 7dd8 49bf 3e2d adbf
000001d0: df27 b1bf 7150 15c0 cc3b 42bf d6f7 d2bf
000001e0: f91e fbbf a4b8 f7bf f86f d2bf 065b f3bf
000001f0: 09dc e1bf 1aab 12c0 a463 bebf 915e febf
00000200: 4639 43bf 86e2 aabf 3796 47bf 968a 88bf
00000210: b01c 95bf 38b9 0fbf d138 163f d43c 5ebf
00000220: 29e3 6bbf 9652 e5bf cc7b a6bf eec6 e1be
00000230: e3ed 50bf 4868 90bf 68a9 91bf 2a2e 5dbf
00000240: 8a7f 83bf 04ea 27bf dbca 43bf b26e 26bf
00000250: 9d4f 79bf 2fd4 b8bf 6084 29bf 38ec 7fbf
00000260: c97b 8cbf 9045 6bbf 4287 fcbe 6f3a 50bf
00000270: 02b9 ae3e 9a95 c3bd 226b 45bf 71c5 d7be
00000280: 5172 99bf f740 d1bf 893f a2bf 7ea6 56be
00000290: beea 09bf c30b a0bf 755e 83bf 3a72 c5bf
000002a0: 370e 0ebf 60c3 dfbe 4425 bdbf 50f7 23bf
000002b0: ea9f 8dbf c817 d5bf db81 4fbf 58cc 88bf
000002c0: 0a7b e4bf d051 e5be dafe 65bf 08da 9dbf
000002d0: 2692 56bf 6d3f 443d 80b3 1bbf 5a0b c2bf
000002e0: ee71 92be 6b3a 90bf 8eac e0bf 6f0f 9ebf
000002f0: 63a9 49bf 918d 8abf 32aa f5be 2186 cfbf
00000300: 601f 983f 4ed2 8abf 4169 87bf 6cbe 903f
00000310: ebf9 71bf 962b 2c3e 5ea1 14c0 5235 8abf
00000320: ccde 81bf 9cac 21bf 4f83 943d b672 96bf
00000330: c2d5 ddbf 3399 9dbf 1d0d 57bf 0b68 3cbf
00000340: 6ee0 03bf 3a62 1fbf 2c41 a13e a7e7 8fbf
00000350: d501 73bf 341a 15bf 8637 8dbf f6ad 3bbf
00000360: 27a2 6fbf edc5 aebf b74b b7bf 203a 4b3e
00000370: bde1 62bf 9ea4 783f fd89 f8bf c4bd 76bf
00000380: 0849 81bf 4215 4ebf a939 09bf 919d acbe
00000390: 1936 70bf afca 45bf f0fc 94bf 2729 32bf
000003a0: db81 70bf b064 41bf c83c 8fbf 8c08 81bf
000003b0: 519b 16bf 358e 4bbf ed1a 51bf d35f 8dbf
000003c0: 5daa ebbf 6ca3 dfbe 83e3 16bf 234f b8bf
000003d0: b6e0 d5bf 6bfb 63bf 8cd3 c8bf 7808 8dbf
000003e0: 5ff6 52bf 4473 a8bf cb7e 63bf 1a00 5fbf
000003f0: d75c 31bf a985 a6bf 2f19 813f b9e5 6abf
-2.2214806 -1.6463805 -1.9694566 -1.7802854 -2.0538185 -2.340763 0.19375536 -2.0227447
-2.211641 -0.41278127 -1.5812107 -2.3367712 -1.8786073 -1.9130632 -2.461873 -1.7991238
-2.089237 -1.4910904 -2.0174315 -1.5243301 -2.0507638 -1.4819916 -2.3046892 -2.461544
-1.751276 -1.3066293 -1.3284773 -1.4974425 0.82568604 1.2190692 -2.0496304 -2.2571335
-2.1408453 -1.7437752 -1.4874529 -1.9035379 -2.661216 -1.8098165 -2.156955 -1.6830047
-2.247797 -2.3409517 -1.4988989 -1.2651478 -2.1879494 -2.5350833 -1.5753584 -1.9145273
-2.1035845 -1.8413564 -1.5803622 -1.4765662 -1.9574625 -1.5228895 -2.0399332 -1.7798766
-1.4106134 -1.8858052 -1.7975059 -0.91174626 -2.0580254 -1.6316047 -1.4965107 -1.8451331
0.6571379 -2.0188143 -1.211811 0.9946483 -1.4546701 0.06797002 -1.8194742 -2.0783222
-1.3782183 -2.1192544 -0.42175192 -1.2989273 -1.5438757 -1.6025888 -1.3731555 -2.0750368
-1.5312585 -1.7431108 0.4534246 -1.885527 -1.855282 -1.9576552 -1.8768902 -2.3688488
-2.180849 -1.8749741 -2.1686003 -0.2516323 -1.9194006 0.13407837 -1.5715086 -1.9252077
-1.3571633 -1.7242786 -2.0358715 -0.7870931 -1.606084 -1.5601178 -2.0464694 -2.3069715
-1.5228534 -2.3212907 -1.8463064 -1.899375 -1.8863986 -2.1278214 -1.7190608 -1.8855697
-1.6499598 -1.8018397 -0.7884596 -1.3529432 -1.3840293 -2.3330348 -0.7587249 -1.6481884
-1.9618827 -1.9353223 -1.644042 -1.9012153 -1.7645274 -2.2916932 -1.4874158 -1.9872609
-0.7625927 -1.335038 -0.77963585 -1.0667293 -1.164938 -0.56141996 0.58680445 -0.86811566
-0.92143494 -1.7915828 -1.300653 -0.44097084 -0.81612986 -1.1281824 -1.1379824 -0.86398566
-1.0273297 -0.65591455 -0.7648141 -0.6501266 -0.97387105 -1.4439753 -0.66217613 -0.99969816
-1.0975276 -0.9190302 -0.49321944 -0.8133916 0.34125525 -0.095500186 -0.77116597 -0.42142823
-1.1988012 -1.6347951 -1.2675639 -0.20961949 -0.53873813 -1.2503589 -1.0263201 -1.5425484
-0.5549044 -0.43703747 -1.4776998 -0.64049244 -1.1064427 -1.6647882 -0.8105752 -1.0687361
-1.7850049 -0.4478898 -0.89842 -1.2332163 -0.83816755 0.04791205 -0.6082077 -1.5159714
-0.28602546 -1.1267828 -1.755266 -1.234846 -0.7877409 -1.0824453 -0.4798141 -1.6212808
1.1884575 -1.084543 -1.0578996 1.1308112 -0.9452197 0.16813502 -2.322349 -1.0797522
-1.0146117 -0.63154006 0.072516076 -1.1753757 -1.7330859 -1.2312378 -0.84004384 -0.73596257
-0.5151433 -0.62259257 0.31495035 -1.124257 -0.9492467 -0.5824311 -1.103257 -0.7331232
-0.936068 -1.3654152 -1.4319981 0.19846392 -0.886257 0.97126186 -1.9417111 -0.9638331
-1.0100412 -0.80501187 -0.5360361 -0.33713964 -0.93832546 -0.77262396 -1.163969 -0.69594043
-0.93948144 -0.7554426 -1.1190424 -1.0080733 -0.58830744 -0.79513866 -0.8168171 -1.1044868
-1.8411366 -0.43679368 -0.58940905 -1.4399151 -1.6709201 -0.8905551 -1.5689559 -1.101821
-0.8240718 -1.3160176 -0.88865346 -0.8710953 -0.6928229 -1.300954 1.008581 -0.9175678
