checkpoints/RNNmodel.pth (torch, 955932 bytes, 9 tensors)

rnn.weight_ih_l0 f4 [512, 77]
000000 a1 35 2f bd 3c 48 18 bf 23 8d e9 bd c6 05 54 be
       -0.042775754 -0.5948522 -0.11403873 -0.20705327
000010 42 ff 98 3d e9 7f 17 be 41 49 10 bf d9 11 f5 bc
       0.074705616 -0.14794888 -0.56361777 -0.029915737
000020 0d f0 2c be f1 ba 4f bd b9 29 81 bd 59 b9 02 be
       -0.16888447 -0.05071539 -0.06306786 -0.12766017
000030 99 57 c7 be 4c ee 2f be de 78 7e be 2c 6e 96 3c
       -0.3893402 -0.17180747 -0.24850795 0.01836308
000040 27 a3 2f be 45 87 fd be 16 b8 98 bc fc 4f 0a be
       -0.17152081 -0.49517265 -0.018642467 -0.13507074
000050 93 97 62 3d 1d 39 d1 3d 4a b3 85 bc 0a e3 04 bf
       0.055320334 0.102159716 -0.016320843 -0.51908934
000060 9c 0b 8e bc 73 67 a5 bd e8 4f 06 3e 32 a7 89 be
       -0.01733952 -0.08076372 0.1311642 -0.26885372
000070 23 dd 4a be 16 5c 01 3e 41 f2 08 bd ab 1e 87 3d
       -0.1981092 0.12632784 -0.033434156 0.06597646
000080 79 6f 65 3e 1f 08 6c 3e 7c f7 81 bd 12 8f 40 3e
       0.22405805 0.23049973 -0.06346032 0.18804577
000090 ee 5d 25 3e dc 1d f2 3c 1a 96 d1 bd 35 1d 87 3c
       0.16149113 0.029555254 -0.10233708 0.01649342
0000a0 7d ce 82 3e 3f bc 03 3e 23 fb ad 3d c4 96 bd 3e
       0.25548163 0.12864779 0.08495166 0.37029088
0000b0 c1 c1 40 3e c9 08 f7 bd 8d 28 e3 3d c8 08 6a 3e
       0.18823911 -0.120622225 0.11091719 0.22854912
0000c0 af e8 b4 3c 9e d3 1f 3e f8 05 e7 3d 40 66 14 3e
       0.022083608 0.1560807 0.11280435 0.1449213
0000d0 08 95 54 3e 1a 45 39 3d a2 e0 92 3a b6 43 aa 3d
       0.20759976 0.045231916 0.0011205862 0.08313696
0000e0 d2 01 db bd bc 30 98 3d 39 b6 94 3e 9f ef b3 3c
       -0.106937066 0.0743117 0.29045275 0.021964846
0000f0 41 01 2e 3e b0 2a 31 3e 9e 46 8e 3d 50 73 4e 3e
       0.16992666 0.1730144 0.06947063 0.20161176
000100 d1 a4 1b bd 8d c8 0f 3e de c0 16 bd 22 6d 86 3d
       -0.037998978 0.14041348 -0.036805026 0.06563784
000110 a5 05 f2 bc 06 32 70 3e 67 5e 16 be d0 72 90 be
       -0.029543707 0.23456582 -0.14684449 -0.28212595
000120 a2 cd 4b 3e ee cb 09 3e 8b 28 24 3d 12 7f 5f 3e
       0.19902661 0.13456699 0.040077727 0.21825817
000130 84 e9 f0 bd 5c d8 83 bd 9b ab 60 be f7 f3 b0 bd
       -0.117632896 -0.06437752 -0.21940462 -0.086402826
000140 40 7a 9f bb 0d 9a 21 3e 39 04 83 bd 45 61 08 3e
       -0.0048668683 0.15781422 -0.0639729 0.13318355
000150 08 c2 c9 3e 6c 6f b6 3c 03 26 45 be 64 67 30 bd
       0.39405847 0.022269927 -0.19252782 -0.04306735
000160 e9 03 38 3d db 48 6e be 4a 0c fd 3c fe 1b 00 3d
       0.044925604 -0.2326998 0.030889649 0.031276695
000170 2e a1 f6 3d a0 ab 12 be fe 2d d5 bb bb ff ff 3e
       0.12042461 -0.14323282 -0.006505727 0.49999794
000180 19 19 ed 3c ce d4 8b be d8 a1 45 be a7 81 e6 bb
       0.028942632 -0.27310795 -0.1930002 -0.0070344987
000190 e1 f4 4a be 81 4b 0c bd dd 70 0e bd 09 86 19 3e
       -0.19819976 -0.034251694 -0.034775604 0.14992537
0001a0 25 b5 2b bd ca 7e 88 3d d4 16 d0 3e 87 a3 49 bc
       -0.0419208 0.06664808 0.40642416 -0.012307054
0001b0 fd e3 e2 bd dc 9f f2 bd 3e be 01 3d f7 f1 4b be
       -0.110786416 -0.11846897 0.03167557 -0.19916521
0001c0 1e 3f 25 be 5a 26 cd be 8c c3 07 3d 95 95 e6 bc
       -0.16137359 -0.40068322 0.033145472 -0.028147498
0001d0 b7 c0 bb bd 3e 80 40 3e 74 db ca be 36 39 8d be
       -0.09167617 0.1879892 -0.39620554 -0.2758271
0001e0 a4 77 8f 3d b1 01 33 3e c1 d1 66 bd 66 55 8e 3b
       0.070052415 0.17481114 -0.05635238 0.0043436764
0001f0 a0 24 dd be 19 86 4a 3c 7f 58 ef bd 8b 97 a6 bd
       -0.43192005 0.012361073 -0.11686801 -0.08134373
000200 02 87 a4 3d 9a 84 d2 be 38 0a a5 be 17 04 fb bd
       0.08033563 -0.41116792 -0.3223436 -0.122566395
000210 af 2d 11 3c c7 19 d5 bd 13 66 7c 3d 5a c0 90 be
       0.0088609895 -0.10405307 0.061620783 -0.28271753
000220 3e e4 54 bd e2 27 9e bd a7 f8 5f be dc a3 31 3e
       -0.05197548 -0.07722451 -0.21872197 0.17347664
000230 ef 4f b3 be f3 06 ed be 5a 47 c5 be 18 b4 cd bc
       -0.35021922 -0.46294364 -0.38531 -0.02511029
000240 9c 68 96 3e 94 27 80 3e 6a f5 52 be ec ca 06 bd
       0.29376686 0.25030196 -0.2060143 -0.032908365
000250 af 99 b3 3e 43 10 13 be 6c a1 76 be 21 d6 4b be
       0.3507819 -0.14361672 -0.24085015 -0.19905902
000260 78 8e 94 bd 0a b1 41 bf 1c 96 10 be f5 b6 08 3e
       -0.07253736 -0.75660765 -0.14119762 0.13351043
000270 7a f1 01 bd e5 fa 19 3e c1 58 69 3d 54 1c cd 3e
       -0.03172443 0.15037115 0.056969408 0.40060675
000280 0a c4 ca be 9e 7f a1 bd 82 fb 90 3e d0 86 fe bd
       -0.3960269 -0.07885669 0.28316885 -0.12428057
000290 56 a4 60 3e 21 4d a6 be 57 63 f4 bc 62 86 2c bd
       0.21937689 -0.3248072 -0.029832525 -0.042120345
0002a0 bb 94 79 bd 26 42 b4 3d 01 37 ef 3e 16 38 d6 be
       -0.060932856 0.08801679 0.46721652 -0.41839665
0002b0 f2 67 3c be d9 a9 80 3d 0d f5 75 be 3c 21 40 3e
       -0.18399027 0.06282396 -0.2401926 0.18762678
0002c0 67 67 77 be e1 d5 24 bc 7d a2 ea 3c 4f d9 be bd
       -0.24160539 -0.010060758 0.028641934 -0.09318792
0002d0 1c c5 e3 ba 12 4f af 3e 3e 00 c7 be d6 22 93 bd
       -0.0017377469 0.34240013 -0.38867372 -0.07184379
0002e0 6b b7 05 3d 4f cc 46 be d8 e7 aa 3d 2e 28 17 bd
       0.032645624 -0.19413875 0.08345002 -0.036903553
0002f0 2b 1c e1 bc da fd c0 3d 84 9e a7 3d eb 8f 57 3e
       -0.027479252 0.09423418 0.08184531 0.21050994
000300 36 e8 ea 3d 8c 24 8e be 35 a1 3b 3e cc 04 20 3e
       0.11470072 -0.27762258 0.18323214 0.1562683
000310 25 af fc bd 05 75 43 3e e9 a4 82 be aa 1b 91 3d
       -0.12338094 0.19087608 -0.2551644 0.070853546
000320 57 f8 97 3e 0c 96 61 3e 3e 1e a2 3d ab 6d 2b bd
       0.29681656 0.22029895 0.079159245 -0.041852634
000330 40 e4 b5 bd cd 2f 36 3e 7d 96 bc 3d 85 e4 b0 bd
       -0.08881426 0.17791672 0.09208391 -0.08637337
000340 36 b5 af 3e 24 8e 6a be 56 2f 7b 3d 66 50 8a 3e
       0.3431794 -0.22905785 0.06132444 0.27014464
000350 9a 85 5a 3e e6 e3 e5 3d c3 19 86 3c 20 32 42 be
       0.21340027 0.11225109 0.016369706 -0.18964434
000360 77 39 13 3e 02 a5 16 3c 3b 5e 45 3d 59 80 9d 3e
       0.1437739 0.009194614 0.04818557 0.30761984
000370 09 b1 0c be 81 21 64 3c 2d 84 38 3e 25 35 cb 3e
       -0.13739409 0.013924004 0.18019171 0.39688984
000380 d6 e4 e2 bd 81 ef d6 3b c8 68 23 be 75 24 0e 3e
       -0.11078803 0.006559313 -0.1595794 0.13881095
000390 35 b8 a0 be f0 57 3b 3e 05 f9 78 3e bc c9 2f 3e
       -0.3139054 0.18295264 0.24313743 0.171668
0003a0 51 9e a0 bd 9d 50 f4 bd 71 89 4b 3e a5 57 87 be
       -0.078426965 -0.11929438 0.19876648 -0.26434055
0003b0 61 6e f8 bd 94 17 25 3d 4a ba 1c be ef 26 39 3e
       -0.12130428 0.04030569 -0.15305439 0.18081258
0003c0 3b 14 46 be 79 12 68 3d 45 d2 bf 3d 60 26 b4 3d
       -0.19343655 0.056658242 0.093662776 0.08796382
0003d0 11 6c 34 bd 89 97 b9 3d 6b 35 80 bd 09 3a 1e bd
       -0.044048373 0.09062106 -0.06260189 -0.038629565
0003e0 d8 d0 5d 3e 82 2b 9c bc 70 db 70 3e fd ec a6 bd
       0.21661699 -0.019063715 0.23521209 -0.08150671
0003f0 ca fb d2 bd cf 0c e0 3d d7 d2 2a 3d 32 74 77 3d
       -0.10301931 0.10939943 0.04170498 0.060413547

rnn.weight_hh_l0 f4 [512, 128]
000000 88 6b 40 bd 7a a1 d0 be 44 5f 8c 3e b1 80 94 3e
       -0.04697755 -0.40748197 0.27416432 0.29004434
000010 d0 f1 0a bf 77 4d 1a 3e c6 e2 34 bf c9 00 a7 bc
       -0.54275227 0.15068613 -0.7065853 -0.020386117
000020 77 49 53 3f 20 c4 44 3c 1c 44 79 be cd 92 16 be
       0.82533973 0.0120096505 -0.24342388 -0.14704438
000030 6f 1c 84 3e 94 04 b3 be f7 d7 e2 bd ad 8f 5f bd
       0.25802943 -0.3496443 -0.11076348 -0.05458038
000040 0b c6 de 3e a2 af 4a bc b1 a8 aa be 55 c5 ec be
       0.4351047 -0.012370976 -0.33331826 -0.46244302
000050 84 cb 32 be 02 48 f2 bd 6f af 38 3c 17 3a 48 3f
       -0.17460448 -0.11830141 0.011272295 0.7821364
000060 1c 4b 73 be d4 1c 09 be 90 d5 dd 3c 40 bc 9b ba
       -0.2375912 -0.13389903 0.027079374 -0.0011881664
000070 91 f0 33 3e c0 27 8a be a1 16 2e 3e 1b c2 96 bc
       0.17572238 -0.26983452 0.1700082 -0.018403104
000080 7e 7d 8b be cf 54 49 be fc cd 0f 3f 90 ba 09 3e
       -0.2724418 -0.19661258 0.5617368 0.13450074
000090 05 9d 1f be 43 ec 25 3f fa 0c a7 3e 7a 74 06 3e
       -0.15587242 0.6481363 0.32627088 0.1313037
0000a0 be 44 97 3d b6 a2 14 3d 86 8a b9 3d 0f e2 d5 bd
       0.073861584 0.036287986 0.090596244 -0.10443508
0000b0 af 3f a6 3e 8f 50 00 3e 6e 50 b7 be d1 e4 85 3e
       0.32470462 0.1253073 -0.3580355 0.26151136
0000c0 18 a9 11 be d8 c6 8b bd 19 19 3f be 94 c8 91 3e
       -0.1422466 -0.06825036 -0.18661918 0.2847334
0000d0 86 70 7b 3e 35 b4 b5 be f4 3c 14 be f0 1c 13 bd
       0.24554643 -0.3548905 -0.14476377 -0.03591627
0000e0 b6 04 44 be 3b cc 8e be f4 8e bb 3e 3b da c5 be
       -0.19142422 -0.2789019 0.36632502 -0.3864306
0000f0 b8 03 d4 3d d2 ea 72 3d 7a 8a 00 3e 50 77 28 be
       0.10352272 0.059305973 0.12552825 -0.16451764
000100 01 5f 0f 3f ae d0 a6 3d 0b ce e8 bd 10 e0 aa 3e
       0.5600434 0.08145271 -0.113674246 0.3337407
000110 2b 25 c3 3c fa 90 62 3e a1 31 81 3d ed 32 88 3d
       0.023821434 0.22125617 0.06308294 0.06650338
000120 36 7b 9a 3e c0 96 31 3d 89 8b 0d be 12 f0 9a be
       0.30172127 0.043356657 -0.1382276 -0.30261284
000130 2c cb 12 3e 51 4d 35 3d fc 7e 84 be ad 32 32 3f
       0.14335316 0.044263188 -0.2587813 0.69608575
000140 64 27 ac be 66 b9 d0 bd a0 9e 86 3e c5 86 2f 3e
       -0.33623803 -0.10191612 0.26292896 0.17141254
000150 30 3a 92 be 96 24 ea be a4 6d 77 3e 00 f9 87 be
       -0.2856002 -0.45731038 0.24162918 -0.2655716
000160 70 36 8d 3d e5 19 c1 be 5d b7 9c be bc 6b 83 3e
       0.06895149 -0.37715068 -0.30608645 0.25668132
000170 f9 70 a1 3c 31 fa 44 3d 64 04 3e be 84 7f 3b 3e
       0.01970719 0.048090164 -0.18556362 0.18310362
000180 5e be 4e bf 50 e7 84 3e a2 09 23 3e f8 5c 40 bf
       -0.8075923 0.25957727 0.15921643 -0.7514186
000190 80 11 ff bc 8c 04 b5 3c 26 a4 c4 3e 17 9c 12 bf
       -0.031136274 0.022096895 0.38406485 -0.57269424
0001a0 78 c5 0a 3f d0 71 eb 3e 0e af f5 3d 91 5b 76 3f
       0.54207563 0.4598527 0.1199628 0.9623347
0001b0 8f 5b 1b be 5f fc de bd 7f ab a9 3c ff e9 06 3e
       -0.15171646 -0.1088798 0.020711659 0.131752
0001c0 68 d7 99 be 89 c8 e1 3c a9 f4 58 3e 17 f9 47 be
       -0.30047154 0.027561443 0.2118708 -0.19528614
0001d0 cd 43 99 be f2 e6 1f bf 17 54 66 be 5d 47 96 bd
       -0.2993454 -0.6246177 -0.22493015 -0.0733783
0001e0 0a 61 14 bf 8b 88 07 bf e8 86 75 3e 9e 6f 0d bf
       -0.5796057 -0.52942723 0.23977244 -0.5524844
0001f0 f2 5c c0 3e d6 1b c0 be 1f c1 4f be 8e c8 2d bd
       0.37570912 -0.37521237 -0.20288514 -0.042427592
000200 91 3a ff bc 06 00 87 be 59 c1 90 3e a5 ab a3 bd
       -0.031155856 -0.26367205 0.28272513 -0.07991723
000210 7d 35 8f bd 4c f3 98 3e de 5c 85 3e 6c ed 16 be
       -0.06992624 0.2987312 0.26047415 -0.14739007
000220 aa 1c fa be 04 9e bc 3e 36 6e 54 bf bd c3 b9 be
       -0.48849994 0.36839306 -0.8298067 -0.3628215
000230 18 ed 87 3d 00 38 82 be 85 7c ae be 54 ff 0d 3e
       0.06637019 -0.2543335 -0.34079376 0.13866931
000240 72 59 cb be 9e 7b f4 bd 43 3a 63 3e f4 f0 8b 3d
       -0.3971668 -0.119376406 0.22190194 0.068330675
000250 b0 93 80 bd fe 02 12 3f a0 a4 08 bf d3 58 0d be
       -0.06278169 0.57035816 -0.533762 -0.13803415
000260 71 25 8f be f6 c3 b9 be 6d b0 2f 3f 71 97 39 be
       -0.27958253 -0.3628232 0.6862858 -0.18124177
000270 64 56 67 bd 8f 51 bd bd 8e 23 af be 1a e2 d7 3a
       -0.056478873 -0.09244072 -0.34206814 0.0016470582
000280 98 0c 02 3e b2 6a c7 be da 58 58 bf 94 64 4b be
       0.12700117 -0.3894859 -0.84510577 -0.19862586
000290 2e f7 91 bd 21 1f ba be 2e cb 7b bc bb bf 0d bd
       -0.07127224 -0.36351874 -0.015368266 -0.034606677
0002a0 26 7b 25 3d dc 98 b9 be 59 a2 a5 be 50 43 36 3e
       0.040400647 -0.36249435 -0.32350424 0.17799115
0002b0 a3 42 d7 3d ab a6 c7 bc 55 b6 af 3d 8f b8 0c bf
       0.10510757 -0.024371466 0.08579699 -0.54969114
0002c0 80 e5 c2 3e b9 31 24 3e 1c 7a c7 be 76 67 51 bf
       0.3806572 0.16034593 -0.3896035 -0.81798494
0002d0 86 7c ab 3e 4d 97 21 3f 90 d9 42 bd ff 6f d8 3d
       0.3349344 0.6312149 -0.047570765 0.105682366
0002e0 b5 00 53 3e 40 33 97 3e c9 94 e0 3d 6e 9c e6 be
       0.20605738 0.29531288 0.109658785 -0.4504122
0002f0 9b 90 41 be ed 95 17 bf 89 ad 01 be 65 6f a0 be
       -0.18902819 -0.59213144 -0.12663855 -0.31334987
000300 82 9d 3a be 93 d5 a6 be bf 76 3f 3e ac c8 95 3c
       -0.18224147 -0.3258482 0.18697642 0.018284164
000310 81 a9 e4 be d9 ce 87 3e 02 68 80 3d 12 e7 f3 3d
       -0.4466057 0.26525 0.06269838 0.119093075
000320 ea 64 c6 3e b5 f3 2c 3f 3b ba f2 3e c8 95 c7 3c
       0.38748866 0.6755937 0.47407708 0.024363413
000330 97 f2 47 bd de 83 66 3e a0 e5 18 3e c2 bb 42 3e
       -0.048815336 0.22511241 0.14931345 0.19016936
000340 11 10 22 be 3d 13 70 3d d4 7d 02 3e 5d 1d b8 3d
       -0.15826441 0.058612097 0.12743312 0.089899756
000350 81 ae 22 be 51 4f ab be 28 a7 96 be 9b 1c 08 bf
       -0.1588688 -0.3345895 -0.29424405 -0.5316865
000360 06 3a b5 bc d2 de 73 3d ba f4 dc 3e 51 4d b6 be
       -0.022122394 0.05953867 0.43155462 -0.35605863
000370 ef 46 87 3e 3e 8e 57 be 61 e4 a4 be 4b f2 79 be
       0.26421306 -0.21050355 -0.3220549 -0.24408834
000380 8c e2 4d 3c 4f 3f 57 3e 0d 47 df 3c 08 98 75 3e
       0.01256622 0.21020244 0.02725556 0.23983777
000390 45 74 b1 3e 69 65 0e bf d6 cc 68 bc f2 ab 0d 3f
       0.3465902 -0.5562349 -0.014208993 0.5534049
0003a0 5a 3d ef 3d 24 6b 7f 3e e3 2d 43 3e 9b 9d c5 be
       0.11681624 0.24943215 0.19060473 -0.38596806
0003b0 74 27 b8 3d 05 fe 85 3d 64 c6 34 3e 1e ce a9 3c
       0.089919 0.06542591 0.17653805 0.020728167
0003c0 b8 00 80 3e 26 e4 3a be 9e dc c7 be 12 21 96 3d
       0.25000548 -0.18251094 -0.39035505 0.073305264
0003d0 41 35 4d be 1f 8c f2 b9 af 05 ab 3d 7f 77 9a be
       -0.20039846 -0.00046262235 0.083506934 -0.30169293
0003e0 53 22 4e 3d f7 6b f1 be f1 b0 c2 3d 42 68 6e 3d
       0.050325703 -0.47152683 0.09506405 0.058204897
0003f0 8d a1 9b 3e 56 a7 66 be 26 95 3a 3f aa 75 10 3e
       0.3039669 -0.22524771 0.7288383 0.14107385

rnn.bias_ih_l0 f4 [512]
000000 49 9c 86 3e ec c5 00 3e e2 de 11 3c 14 df fc bd
       0.2629111 0.12575501 0.008903237 -0.12347236
000010 7a 40 97 3e 8f 97 20 3e 14 b3 a4 bc 0f 7e 0e be
       0.2954138 0.15682815 -0.020104922 -0.13915275
000020 ed f5 0d be 9e 44 ab 3e 66 7f 24 3e a0 d0 09 3e
       -0.13863344 0.33450788 0.16064224 0.1345849
000030 b7 81 b3 3e d9 ca 67 3e 86 ed 8f 3e 31 2b f4 3d
       0.35059902 0.22635974 0.28110904 0.119223006
000040 42 e5 8e 3d 19 75 a7 3e a7 f4 89 3a 05 8a b3 3c
       0.06977321 0.32706526 0.0010525183 0.021916399
000050 ff da 89 bd 93 fa 9d 3e c1 99 b7 3e dd db b9 bd
       -0.06731223 0.30855235 0.35859492 -0.09075139
000060 12 8a 87 bd 77 7d dd 3d e2 c2 1f be c0 bd c7 3e
       -0.06618132 0.10814946 -0.15601686 0.39011955
000070 eb f4 9e bd 61 27 df 3e b9 69 f1 bd 0c 9a a3 3e
       -0.07761558 0.4358473 -0.11787743 0.31953466
000080 cf 96 57 3e 05 0e a9 3e 09 1b 03 3d e3 7d e5 3e
       0.21053623 0.3301851 0.032008205 0.44822606
000090 2a a2 5c bd b3 f7 62 be fa cf 92 3e bd d0 91 3e
       -0.05386559 -0.22164802 0.286743 0.28479567
0000a0 77 8a b2 3e 55 db 23 be 8f 8c 3f 3d 59 30 e7 3d
       0.34871265 -0.16001637 0.046764906 0.112885185
0000b0 5b 3c ce 3d 00 ff a4 3d fd e2 7f 3e 89 18 41 be
       0.10070106 0.0805645 0.24988933 -0.18857016
0000c0 07 08 4f be 13 3d 98 3e 71 69 1c 3d 32 30 1d 3e
       -0.20217906 0.29734096 0.038186494 0.15350416
0000d0 c9 08 66 be 29 53 e8 bd 7a 61 aa bd 31 92 1e be
       -0.22464289 -0.113439865 -0.083193734 -0.15485455
0000e0 5b 51 bb 3e 31 2e 2c 3d 84 8f 92 be 69 4a 45 3e
       0.36585507 0.04203624 -0.2862512 0.19266666
0000f0 6b 38 4c be 3b 85 82 3e e0 09 5c 3e 0b db 16 3c
       -0.19943397 0.25492272 0.21488142 0.009207497
000100 26 4a df 3d 02 02 f1 3e 80 10 16 3d d9 17 b8 be
       0.109028146 0.47071844 0.03663683 -0.35955694
000110 d0 a2 19 be 08 49 fd 3d 77 4c 0f 3f 7a 73 92 bd
       -0.15003514 0.12367445 0.5597605 -0.07150932
000120 aa 3e a3 3e ed 3b 0b 3c ea cb cf 3e 59 1b 50 bd
       0.31883746 0.008498174 0.40585262 -0.05080733
000130 ea 62 d4 bd 6a fb c8 bd 83 e4 81 3e 3d ef 94 3e
       -0.10370429 -0.098135784 0.25369653 0.29088774
000140 87 db 5b 3e a5 0f b7 bd e0 79 83 3d 3e 2d d8 3b
       0.21470462 -0.08938531 0.0641973 0.00659719
000150 51 04 9b 3e d9 d8 8d bd 95 bd 86 3e 1e a6 70 3e
       0.3027673 -0.06926126 0.26316515 0.23500869
000160 eb ea ab bd 4f d6 19 3f 83 92 68 3e c9 13 2c 3e
       -0.083944164 0.60092634 0.2271214 0.16804422
000170 e4 b1 82 be 89 6e 03 be 1e 5a cf 3d 4a 17 30 3e
       -0.25526345 -0.12835135 0.1012461 0.17196384
000180 6e bd ce 3d 60 29 82 bd ab b2 f2 3e c8 ee 04 bd
       0.100947246 -0.06355548 0.47401938 -0.032454282
000190 7b 02 9c 3e 40 24 3d bd 3b 93 a6 3e 2f a7 ea 3d
       0.30470642 -0.04617715 0.32534203 0.11457669
0001a0 35 3b c3 3d 5a c4 e4 3d 94 00 28 3e 40 e5 7e 3d
       0.09532777 0.111702636 0.1640647 0.06223035
0001b0 e2 d9 58 3e 2e 92 3b 3e 12 35 2e bd 8e 84 c3 3e
       0.21176866 0.18317482 -0.04253108 0.3818707
0001c0 fe ef 6a bd 22 72 c9 bd 80 4a 50 bd ed 4a 05 bd
       -0.05735778 -0.09836222 -0.0508523 -0.032542158
0001d0 58 4a 97 3e f1 fd c3 3d 3f ec 93 3e 08 65 89 be
       0.29548907 0.0956992 0.2889118 -0.26834893
0001e0 1e 7a 16 3d 23 54 4d 3e 6b 8e 97 3e ac 44 e2 3e
       0.036737554 0.20051627 0.29600844 0.44193017
0001f0 d9 80 be 3d e8 8d 89 3e b7 13 7c 3e fb c4 ac 3e
       0.093019195 0.26866078 0.24616896 0.33744034
000200 8b 9c 9b be bd a5 09 3d 1a 98 05 3b b7 86 a1 bd
       -0.3039287 0.033605326 0.002038485 -0.07887023
000210 cc c0 38 3e d3 5d e9 3d 20 09 79 3d 5d 27 97 3d
       0.18042296 0.11394849 0.060799718 0.07380555
000220 39 83 91 3e 99 8c 04 3e 87 aa 03 3d 10 52 2a bc
       0.28420427 0.12944259 0.03214505 -0.010395542
000230 94 3b 65 3d 57 d0 97 3c 84 81 aa 3e fd 09 7d be
       0.05596502 0.018531961 0.33301938 -0.24710841
000240 08 02 bf 3d 66 58 dc be 7e 5b 0f 3e fc 67 b9 3d
       0.09326559 -0.43036193 0.13999745 0.090530366
000250 80 25 bf 3d 19 00 69 3d 44 d9 f3 3d a9 8e 62 3e
       0.093333244 0.05688486 0.119066745 0.22124733
000260 6d 03 e5 3d f7 c3 c5 3d 50 83 14 3e 85 e8 bd bc
       0.11182294 0.09656518 0.14503217 -0.023182163
000270 90 39 01 be 7b 20 4f 3e 94 a2 10 be 2b 7f 4c 3e
       -0.12619615 0.20227234 -0.14124519 0.19970386
000280 61 c2 b8 3e 6e f3 98 be 7b ec 3c 3e 3c 99 9a bb
       0.360858 -0.29873222 0.18449585 -0.004717974
000290 35 f9 05 3e ce 58 10 3e bf e6 fe 3d 0a ba 1b 3d
       0.13083346 0.14096376 0.12446355 0.038019218
0002a0 5c b6 26 3e f4 37 87 be 91 b2 d0 bc 0e 51 d6 3d
       0.16280502 -0.26409876 -0.025475772 0.10464679
0002b0 5e e7 12 3d 32 64 1a 3e a3 97 1e be 80 18 73 3e
       0.03586518 0.15077284 -0.15487532 0.23739815
0002c0 81 79 e3 3c 95 24 0a 3e 7c 70 75 3e db fb 85 3e
       0.027767899 0.13490517 0.2396869 0.26168713
0002d0 e9 4a 28 3e d4 af 07 3e bb 93 2a be 11 18 16 be
       0.16434826 0.13250667 -0.16657917 -0.14657618
0002e0 da 77 1f 3d 90 ca ea 3d 8b 4b 36 bc 02 90 1b 3e
       0.03893266 0.11464417 -0.011126409 0.15191653
0002f0 ed 7b d3 bd 97 7b 79 3e a3 bf fe 3e 67 56 3f 3d
       -0.10326371 0.24363552 0.49755582 0.04671326
000300 48 28 96 bd d7 69 8a 3d b4 75 85 be a4 ad 81 3e
       -0.07331902 0.067584686 -0.26066363 0.2532779
000310 71 84 c4 3e 81 96 1f be 05 98 16 be 25 1d 8f 3d
       0.38382295 -0.15584756 -0.14706428 0.06987981
000320 74 9e 8e 3c e9 b0 07 3e fc c9 60 3d c9 e9 0c 3e
       0.01740954 0.1325108 0.054880127 0.13761057
000330 0a 54 ad bd ca 77 13 be 91 13 d6 3e 8f 26 32 be
       -0.08463295 -0.14401165 0.41811803 -0.17397521
000340 59 33 f2 bb 3f 75 1b be 9a 75 74 3d 6a a2 04 bd
       -0.007391375 -0.15181445 0.059682466 -0.032381453
000350 2c 85 8e 3e 52 c2 db 3e cb 06 0c 3e ff af b9 3e
       0.27835977 0.42921692 0.13674466 0.36267087
000360 5e 72 b2 3d a2 f4 e6 bd c1 fe 80 be 76 a2 75 bc
       0.0871322 -0.11277129 -0.25194362 -0.014992347
000370 aa 10 68 3d bc 74 cc 3c 2c 35 6a be 87 6f e5 be
       0.056656517 0.024958007 -0.22871846 -0.4481165
000380 b4 83 94 3d ae 63 0d be d7 a7 02 3e 18 4f f8 bd
       0.07251683 -0.13807556 0.12759338 -0.12124461
000390 d4 ca 2a 3e 62 85 95 bd 7c da 7a 3e 75 43 95 bd
       0.16678935 -0.073008314 0.24497408 -0.07288257
0003a0 1d aa 0d 3d bb 32 04 3e a9 88 ab 3d 2c 0b 3d 3d
       0.03458606 0.12909977 0.08375675 0.046153232
0003b0 05 07 7a 3e 69 e9 54 be df 6d bf 3e 86 ce 2d 3e
       0.2441674 -0.20792164 0.37388512 0.16973314
0003c0 14 98 20 3e 52 61 a5 be 67 17 c9 bc 9b b8 36 be
       0.15683013 -0.32300812 -0.024547292 -0.17843859
0003d0 97 e5 03 3e 1b ee cf 3d 30 5f bc bb 32 8f 57 3d
       0.1288055 0.10152837 -0.005748652 0.052626796
0003e0 1d 17 f2 bd c9 ab b2 3e 68 a7 75 bd e7 94 9d be
       -0.11820815 0.34896687 -0.059974104 -0.30777666
0003f0 44 df bd be ee a0 19 3e 1b 14 f7 bc da 25 1c bc
       -0.370844 0.15002796 -0.030160954 -0.009530509

rnn.bias_hh_l0 f4 [512]
000000 b6 25 33 3e e3 a1 b9 3d c1 5d 99 3d 13 8e e0 bd
       0.17494854 0.090640806 0.07488585 -0.109645985
000010 6e 16 9e 3e 7d fc b7 3d 83 91 fe bd 7b 30 6d bd
       0.30876487 0.08983705 -0.12430098 -0.057907563
000020 f9 dd e6 bd 78 59 b9 3e 4f 90 80 3e 2b 2e 9f 3c
       -0.11272807 0.36201072 0.251101 0.019431194
000030 bb 1d bd 3e fa 45 34 3e e3 8d 4b 3e a8 cf 1a 3e
       0.36936745 0.17604819 0.19878344 0.15118277
000040 c8 3c cd 3c 77 95 d4 3e 99 9c f2 3d a8 45 2e 3e
       0.025053397 0.41520283 0.11846275 0.17018759
000050 e0 80 a6 bc bf 37 7d 3e 3b a7 d1 3e 1f a8 b0 bd
       -0.020325124 0.24728297 0.409479 -0.086258166
000060 34 c0 1f be 85 52 88 3d 90 35 53 be ce ea 9d 3e
       -0.15600663 0.06656364 -0.20625901 0.30843204
000070 e8 47 f3 bd 21 53 9f 3e 4d 82 06 be df c3 8d 3e
       -0.118789494 0.3111811 -0.13135643 0.276885
000080 bd cf 9a 3e eb b8 8d 3e 2f 06 b8 bd 75 20 b2 3e
       0.30236617 0.27680144 -0.089855544 0.34790388
000090 50 f6 ba bd 2e 33 6d be 18 bd b9 3e 71 c4 af 3e
       -0.09129012 -0.23164055 0.3627708 0.3432956
0000a0 d1 de 9d 3e 67 f2 05 be 69 d6 3c 3d ac f2 03 3e
       0.30834058 -0.1308075 0.046102915 0.1288554
0000b0 2d 8a a3 3c 11 f9 42 bc c8 c3 58 3e df 55 64 be
       0.019963348 -0.011900202 0.21168435 -0.22298382
0000c0 9a f3 7e be 56 f0 2f 3e 13 b1 0a 3b 45 90 0b 3e
       -0.24897614 0.17181525 0.0021162673 0.13629253
0000d0 51 d3 85 be f3 f5 69 be bb 51 40 bd 39 df a7 bd
       -0.26137784 -0.22847728 -0.046952944 -0.08196873
0000e0 59 cf bd 3e 33 72 12 bc aa 8b 90 be 38 82 f8 3d
       0.37072256 -0.00893836 -0.28231555 0.12134212
0000f0 a5 5e 86 be d2 f7 b0 3e 30 d2 42 3e 26 4e ae 3d
       -0.26244083 0.34564072 0.19025493 0.085109994
000100 77 0c 0e 3e d0 8d d5 3e 6f 95 e3 bd 5f 28 be be
       0.13871942 0.41709757 -0.111124866 -0.37140176
000110 98 08 4f be b8 7b e5 3d 18 24 15 3f fe 50 65 3d
       -0.20218122 0.11205238 0.582582 0.055985443
000120 8e d2 ef 3e 84 95 b0 3d ce d5 fb 3e 50 80 23 bc
       0.46840328 0.08622268 0.49186558 -0.009979323
000130 47 1a 1d bd 52 90 92 bd 85 97 81 3e 9d 6f 59 3e
       -0.03835514 -0.07156433 0.25310913 0.21233983
000140 ea 70 09 3e 4f 41 c6 bd 6c 72 56 3e ec b2 e1 3d
       0.1342198 -0.096804254 0.20942086 0.11020455
000150 8d d3 90 3e b9 e2 8e 3d ff c3 31 3e ae 1e 84 3e
       0.282864 0.06976838 0.17359923 0.25804657
000160 d3 df e7 3b 1b d3 23 3f 8d 25 8b 3e 2f 0c 84 3e
       0.0070762425 0.63993996 0.27177086 0.25790545
000170 0e 24 3d be 53 16 09 be 8f 90 9a 3d ce d7 0d 3e
       -0.18470785 -0.13387422 0.075471036 0.13851854
000180 4b c9 e3 b9 c9 a1 66 be 17 50 03 3f 5e a2 33 bd
       -0.0004344679 -0.22522654 0.5129408 -0.043856017
000190 e5 4f 77 3e 7b 65 95 bd 0b d9 da 3e 38 fb ef 3d
       0.24151571 -0.072947465 0.42743716 0.11717838
0001a0 d3 8c c3 3d 8e 23 ea 3d 92 ff 8f 3d 87 c1 18 bb
       0.095483445 0.11432563 0.07031168 -0.002330871
0001b0 1e fc 0d 3e 0c d2 e9 3d d6 52 88 bd 4b 11 7c 3e
       0.13865706 0.114170164 -0.06656425 0.24615972
0001c0 90 07 90 3d 61 9c 80 be 16 01 c1 3b 33 cb c2 3d
       0.070326924 -0.25119308 0.005890022 0.095114134
0001d0 ee bb 92 3e 2c 63 63 3e 33 3d 9b 3e fb 40 6a be
       0.28659004 0.222058 0.3032013 -0.2287635
0001e0 2a eb 72 3d 60 0d 83 3e 69 33 8e 3e 5a b6 9b 3e
       0.0593063 0.25596142 0.27773598 0.3041256
0001f0 d9 cf f3 3d 54 a1 59 3e a2 09 ed 3d 45 fc a4 3e
       0.11904878 0.21252948 0.11574103 0.32223716
000200 32 a4 11 be da ec 88 3d 19 56 b0 3d c5 e2 af bd
       -0.14222792 0.06685801 0.08610172 -0.08588175
000210 ee dc 18 3e 4d 58 e3 3d b8 7d 28 bd c0 59 2b b7
       0.14928028 0.111008264 -0.04113552 -1.0213291e-05
000220 e8 42 34 3e ad 4c c2 3d d8 b3 9d bd 01 d1 5e bb
       0.17603648 0.09487281 -0.07700318 -0.0033999088
000230 d0 03 8b bc c6 47 92 3d a7 bc 68 3e d5 21 77 be
       -0.016969591 0.07142596 0.22728215 -0.24134
000240 c8 c1 03 3e dc 00 b0 be 88 ef 0f 3e fc b9 ca 3d
       0.1286689 -0.34375656 0.14056218 0.09898755
000250 9c 13 b6 3d 7e 8e dd 3d b4 9c 6a 3d b9 7d 77 3e
       0.08890459 0.10818194 0.05727835 0.24169053
000260 1a 58 b9 3c 6b 81 91 3d 0d cc 96 3d e4 43 49 bd
       0.022625018 0.07104763 0.07363138 -0.04913701
000270 5f c4 3a bc 51 6e 74 3e 35 99 7f bd 75 ff 6e 3e
       -0.011399358 0.23870207 -0.06240197 0.23339637
000280 9f db 99 3e 48 b0 a6 be b1 48 f6 3d 64 67 b5 bd
       0.3005037 -0.32556367 0.120255835 -0.08857611
000290 df 0f 6f 3d 60 5a 20 3e ea 86 6a 3d 32 c1 b7 3d
       0.058364745 0.15659475 0.05725757 0.08972396
0002a0 76 15 1d 3e 81 d6 8b be 59 bd d1 bd 02 8c da 3d
       0.15340218 -0.2731209 -0.10241193 0.106712356
0002b0 7f e9 8e bd 36 0a dc 3d 50 a0 09 bd 5e a3 15 3e
       -0.069781296 0.10744135 -0.03360015 0.14613101
0002c0 55 fc 06 3d b9 ac 0a 3e 36 f9 62 3e 8d ae 92 3e
       0.032955486 0.13542451 0.22165379 0.28648797
0002d0 7a 1a 82 3e 1b 3f 3c 3e 69 29 10 bd a3 46 ec 3a
       0.25410825 0.18383448 -0.03519574 0.0018026422
0002e0 5a 33 a2 3d 4b 9e 80 3e fe 80 86 3c 4e d7 70 3e
       0.07919951 0.25120768 0.01641893 0.23519632
0002f0 08 dd 88 bd fd 75 63 3e e7 38 05 3f e5 60 a0 bc
       -0.06682783 0.22212978 0.5203995 -0.019577453
000300 94 a1 75 bd 36 e6 dd 3d 0c 14 24 be d6 9f 82 3e
       -0.059968546 0.10834925 -0.16023272 0.2551257
000310 8a 4a 8c 3e c9 7b 07 be 26 c2 17 be bd af 02 3c
       0.2740062 -0.13230814 -0.14820156 0.00797647
000320 c3 fb ac bd 9a 75 cd 3d 40 23 17 bd 77 ff d5 3d
       -0.08446457 0.10032196 -0.03689885 0.10449117
000330 38 51 cd 3c 7d 43 fe bd 54 5c f6 3e 5f 6a 59 be
       0.025063142 -0.12415216 0.48117316 -0.21231984
000340 56 1e 8f bc 8b 3f cf bd 14 e2 ad bd 9f a7 d3 bc
       -0.01747052 -0.10119542 -0.084903866 -0.025836764
000350 14 4a c4 3e fa f5 d3 3e 87 0d 0e 3e bd 52 c5 3e
       0.38337767 0.41398603 0.13872348 0.38539687
000360 2d 5c fa bc 17 f5 b5 bc 69 fd 2f be a0 a0 ce bd
       -0.030561531 -0.022211595 -0.17186512 -0.100892305
000370 42 38 00 3e 1b 07 26 bc db a8 88 be 0b fc a7 be
       0.1252146 -0.01013353 -0.26691326 -0.3280948
000380 d8 6f b0 3d 30 e4 61 be 56 4e a9 3d 51 bc 30 be
       0.086150825 -0.22059703 0.082668945 -0.17259337
000390 09 ff 00 3e f4 49 03 bd 59 6a 6f 3e b9 88 38 3c
       0.12597288 -0.03205295 0.23380412 0.011263066
0003a0 8d 4f ee bc 18 a1 4b 3e 6b 82 4a 3c a6 a5 07 3e
       -0.029090667 0.19885671 0.012360196 0.13246784
0003b0 68 46 24 3e 77 0e 50 be 75 50 82 3e 3c a7 cf 3d
       0.16042483 -0.20318018 0.2545201 0.10139319
0003c0 af 99 c3 3d 38 7a a9 be 5f 3f 85 bb 23 d8 59 be
       0.09550797 -0.33101058 -0.0040663923 -0.21273856
0003d0 b1 c7 6c 3d 8f c0 9b 3c 40 49 6b 3d cc 36 26 bd
       0.057807628 0.019012718 0.057442904 -0.040579602
0003e0 46 3f b0 bd 7b ff 54 3e 68 a7 99 bd 05 f5 83 be
       -0.086058185 0.20800583 -0.07502633 -0.25772873
0003f0 cc 5b 9c be f3 9d 72 3e 24 a9 33 be 90 8a 4e 3c
       -0.30538785 0.23693065 -0.17544991 0.012606278

rnn.weight_ih_l1 f4 [512, 128]
000000 6b 4d 8e bd d0 a2 06 bf 3c b7 2a be 19 6d 9c 3d
       -0.0694836 -0.5259218 -0.16671461 0.07637996
000010 6e 31 b6 be 56 9a 2f be ea db a6 3d 24 35 70 be
       -0.35584587 -0.17148718 0.08147414 -0.23457772
000020 0a ea 21 3f fe d8 7c be fb 7f 97 3d d7 99 dd be
       0.6324774 -0.24692151 0.07397457 -0.43281433
000030 d7 47 69 3e 14 e8 f2 be c1 c1 71 3e ea a8 c4 be
       0.22781311 -0.47442687 0.23609067 -0.3841012
000040 5d 21 50 3e f9 8e 74 3d c1 c9 9d 3d 45 92 39 be
       0.20325227 0.05970666 0.07704497 -0.18122204
000050 6f 33 36 be e8 0e 8e be a5 6b 1b 3f 2f 8b 31 3d
       -0.17793058 -0.27745748 0.6071113 0.043345626
000060 19 36 c9 bc 48 c6 97 be cc 38 c4 be 52 db c0 3e
       -0.024561929 -0.29643464 -0.38324583 0.37667328
000070 31 83 35 3e 00 64 6c 3e 04 00 df 3e 63 b5 e0 3d
       0.17725827 0.23085022 0.435547 0.10972097
000080 8b 9a 8f 3e bf 41 ac 3e 75 e4 c6 bd 9c 2a b4 3d
       0.28047594 0.3364391 -0.097115435 0.087971896
000090 69 64 b2 be 42 63 c5 be f0 bc 9b be 41 02 3f 3e
       -0.34842232 -0.3855229 -0.30417585 0.18653204
0000a0 86 97 60 be 1c af 0c 3d 8e bd c6 3d 67 41 59 3e
       -0.21932802 0.034346685 0.097041234 0.21216355
0000b0 77 dc bc bd d4 4a 5f 3e 92 1b b7 be f3 4e 4d be
       -0.09221738 0.21805888 -0.35763222 -0.20049648
0000c0 e1 a1 e8 3d 61 d4 a6 be dc 86 62 be d5 e9 b2 3d
       0.11359001 -0.32583907 -0.22121757 0.08736006
0000d0 50 84 51 3e 87 e8 13 3e f1 6c b3 be f5 8d ad be
       0.2046063 0.14444171 -0.35044053 -0.33897367
0000e0 95 5e bf bc cd 20 0f 3e 50 0c 5e 3e b3 da 1f 3e
       -0.02336053 0.13977356 0.21684384 0.15610771
0000f0 c7 22 d6 be 09 be fd 3c e1 69 68 bc db a9 70 be
       -0.41823408 0.030974405 -0.0141854 -0.23502295
000100 01 83 be be 32 87 e5 be e5 88 54 be 06 bb b3 be
       -0.37209323 -0.44829708 -0.20755346 -0.35103625
000110 b3 2a fb be 9b 34 18 3d 46 82 94 bd 97 04 d0 bb
       -0.49056014 0.037159543 -0.0725141 -0.0063482034
000120 26 a4 43 3e 4f db d2 3c 0f 78 33 3e 56 ff f8 3e
       0.19105586 0.02573934 0.17526267 0.48632306
000130 eb 54 b8 3c a7 40 1f 3e 58 08 4b bb 01 da 16 bf
       0.02250143 0.15552007 -0.0030980315 -0.589264
000140 c6 2b 9d 3e 53 a1 46 bc 16 01 35 be 53 9c ad 3d
       0.3069746 -0.012123424 -0.17676196 0.08477082
000150 21 40 b0 3c 1c 99 a6 bd fe 45 a2 bc 8f 8f b4 3c
       0.021514954 -0.08134672 -0.019808766 0.02204111
000160 07 24 ac 3e 49 16 d5 be 86 63 b6 bd 1d 4a d0 bc
       0.33621237 -0.41618565 -0.08905701 -0.025425965
000170 54 77 5d be 06 2c b4 3e 89 74 0f 3d c9 0a d2 3e
       -0.21627551 0.35189837 0.035023246 0.41023853
000180 35 e7 0b bf bd 5e 27 bd 24 85 c0 be 14 24 7e be
       -0.5464967 -0.040861834 -0.37601578 -0.2481845
000190 8f 12 ee be 71 d4 fc be 28 5a b1 3d 24 a7 10 3f
       -0.46498534 -0.4938083 0.08659774 0.56505036
0001a0 4c e4 fd bc db c5 01 bf 61 4b a8 be b3 fd 45 3e
       -0.03099265 -0.5069253 -0.3287001 0.1933506
0001b0 35 59 a3 3d c7 8c c7 bd a2 d9 f3 bd ac d7 a4 bd
       0.07975999 -0.09743648 -0.119067445 -0.08048949
0001c0 99 54 22 bd 9d e5 76 3e 33 ea 54 be 0c 67 dc 3d
       -0.03963146 0.24111028 -0.20792465 0.10761842
0001d0 be e2 92 3d 26 1b 46 3d 5b 39 4d be 5b 5b bd 3e
       0.07172154 0.048365735 -0.2004141 0.3698376
0001e0 33 fc 87 3d 8e 98 80 be b5 e1 9d be 63 14 17 3d
       0.066399 -0.2511639 -0.30836263 0.036884677
0001f0 67 02 11 3e 41 6c f8 be ec 2f e2 3d ef 84 15 be
       0.14161073 -0.4852009 0.110442966 -0.14601491
000200 c2 32 13 be 73 71 29 be 89 4b e9 bd ac 3b 32 be
       -0.14374831 -0.16547184 -0.1139136 -0.17405576
000210 d1 8f aa 3d d6 9e a0 3e 9a 5c f7 3d 83 0c a4 bd
       0.08328212 0.31371182 0.12078209 -0.08010199
000220 34 cd bd 3d c8 3c 56 be e0 99 e2 3d ef e2 b0 3e
       0.09267655 -0.20921624 0.110645056 0.34548137
000230 1a 5d e9 bd d8 93 74 be 72 7f 2b 3e d1 87 c1 bd
       -0.11394711 -0.23884523 0.16747835 -0.09449733
000240 92 84 00 bf 80 4d 8d 3e f0 ab 07 be d7 de 80 3d
       -0.50202286 0.2759819 -0.13249183 0.06292503
000250 7f ce f8 3e ed a2 6f 3e f0 f7 1c be 42 3f 16 3d
       0.48595044 0.23401995 -0.15328956 0.03668142
000260 88 bf 5d 3d de 06 1a 3e c5 f9 b1 3d ec 33 ab 3d
       0.054137737 0.15041682 0.08690218 0.08359513
000270 1b af 3a 3e 2d dc 6d bd 7f eb 0b bd 2a 1e db 3e
       0.1823086 -0.058071304 -0.034160133 0.4279645
000280 d9 ef ee 3e 16 17 41 bd 26 4d f2 be fd b3 2d be
       0.46667364 -0.047141157 -0.47324485 -0.16963191
000290 aa 1a 86 3d df 5d 96 3e 55 0b fe be 5d f5 01 be
       0.065480545 0.29368493 -0.4961802 -0.12691255
0002a0 b5 d4 4a 3d 14 b0 ac 3e dd ba f9 3e 8f eb aa 3e
       0.04951926 0.33728087 0.48775378 0.33382842
0002b0 e7 c7 36 be 5b ad a1 3d 58 6f 1d bf 0a 44 6f be
       -0.17849694 0.07894393 -0.6149802 -0.23365799
0002c0 bf 31 bf 3d c1 ed 9e 3d 3d 74 ac bd fd 29 ca 3c
       0.0933566 0.07760192 -0.08420608 0.024678225
0002d0 fb cd 2b be 71 f0 a2 bd ad e4 f0 bd 10 08 2b be
       -0.16777794 -0.07956017 -0.117623664 -0.16702294
0002e0 1b 68 98 be 77 22 b3 3d 7e 3f 59 3e e6 99 ce 3d
       -0.29766926 0.08746808 0.21215627 0.100879475
0002f0 b4 e5 be 3e 5f fc b9 3e 29 61 b6 3d ec 3d 26 3d
       0.37284625 0.36325356 0.089052506 0.040586397
000300 8e 43 98 3e 50 04 9e be 2f 9c 97 3e 92 c4 a7 3e
       0.2973904 -0.30862665 0.29611346 0.3276716
000310 0f 4e b1 3e 68 2e a8 be d8 95 79 bc 53 8c f7 3d
       0.34629866 -0.32847905 -0.015233479 0.120873116
000320 e5 53 f1 bd 33 bd 14 3e 44 37 26 be 7a e3 c1 3c
       -0.1178358 0.14525299 -0.1623202 0.02366804
000330 20 b6 ea 3d e2 91 77 be 68 4e 9b be f1 93 13 bb
       0.11460519 -0.24176744 -0.30333257 -0.00225186
000340 96 ea 91 be 3e d8 b6 3d be 66 c5 bd e3 09 b3 bd
       -0.28499287 0.08927964 -0.09638737 -0.0874212
000350 cd 15 97 be 85 3a 22 3d 3c f9 46 3d 1c 25 3f 3e
       -0.2950882 0.03960659 0.048577532 0.186665
000360 1f ba b2 bd a0 67 33 3d f9 54 9c 3c 5f 86 a0 3e
       -0.08726906 0.043799996 0.019083487 0.31352517
000370 b2 4f a5 3d 25 ac e5 be d0 6b ae 3e 4c 81 2c bf
       0.08071841 -0.44857898 0.3406663 -0.6738479
000380 b5 5f 0a 3e 11 0d 0f bd 15 a2 7c bd 1c 44 68 3d
       0.13513072 -0.03492457 -0.06167801 0.05670558
000390 39 79 eb bc af a1 02 be 58 01 09 3e d5 99 ab be
       -0.028744327 -0.1275699 0.13379419 -0.33515802
0003a0 a2 f1 a3 3d e7 3d 6e be f6 0e 33 3e 1f 45 17 be
       0.08005072 -0.23265801 0.17486176 -0.14772461
0003b0 3c 77 5a be 9d 59 b0 3c 39 cc 32 be 70 ae 0c be
       -0.21334547 0.021527106 -0.17460717 -0.13738418
0003c0 f5 f8 5f bd e2 02 1e bf bd 4d 6d be 57 2a c4 bc
       -0.054680783 -0.6172315 -0.23174186 -0.02394597
0003d0 b4 a6 8a bb e2 4c 6b be 12 75 1a be a8 60 7d 3d
       -0.0042312983 -0.22978547 -0.15083721 0.061859757
0003e0 22 72 cc 3b 4d b0 02 be 43 1f e3 3d 12 22 ea 3d
       0.0062391916 -0.12762566 0.11089947 0.1143228
0003f0 f4 60 7a 3e be 60 17 3d df c0 af be 17 b2 85 3e
       0.24451047 0.036957495 -0.34326836 0.26112434

rnn.weight_hh_l1 f4 [512, 128]
000000 1a 91 be 3d 10 99 8b be 91 8a 6c 3e 73 c0 b5 3c
       0.0930502 -0.27265215 0.23099734 0.022186494
000010 bb 74 86 be 84 85 82 3d 89 28 42 3e a3 bb 90 3e
       -0.26260933 0.06373122 0.18960775 0.28268155
000020 e5 71 62 be 93 67 49 bd bd 71 3b 3e 49 7f 92 be
       -0.2211376 -0.04917104 0.18305106 -0.28612736
000030 14 de 4f be 4b e3 b1 3e a6 40 4f be ee 87 67 3d
       -0.2029956 0.34743723 -0.20239505 0.056526117
000040 50 6d 89 3e cc 0c 31 bd a4 e1 9a be 1a 62 c5 bd
       0.2684121 -0.043225095 -0.30250275 -0.09637852
000050 1f 42 ee 3e d7 d7 22 be ca a0 92 3e ef 03 a9 be
       0.4653482 -0.15902649 0.28638297 -0.33010814
000060 c7 d5 18 3e 12 6d b4 be f7 60 f5 3d c0 da 4e 3d
       0.149253 -0.35239464 0.11981385 0.050501585
000070 fa 71 94 3e 11 be 64 3e 06 d5 08 3e 53 fe de bd
       0.28993207 0.2233813 0.13362512 -0.10888352
000080 40 88 64 3b 4e 74 54 3e 55 cd d9 3d ee 24 11 3e
       0.003487125 0.20747492 0.10634867 0.14174244
000090 5a f0 0b bd 60 ff 18 bd 5f 37 64 bd b4 dd cc be
       -0.034164764 -0.03735292 -0.05571687 -0.40012896
0000a0 0e e9 8b 3d 42 84 24 be 1d 61 c8 3d e6 17 77 3e
       0.06831561 -0.16066077 0.09784148 0.2413021
0000b0 c3 88 53 be 08 72 a1 3e 49 34 49 3e a6 3d 77 be
       -0.20657639 0.3153231 0.19648851 -0.24144611
0000c0 27 c3 e5 3d f8 89 17 3e e1 0c 4e be 79 71 92 bc
       0.11218863 0.14798725 -0.201221 -0.017876374
0000d0 1e a8 5f 3d f3 a0 b3 bd f4 fd a7 bd aa f2 56 be
       0.05460369 -0.08770933 -0.082027346 -0.20991006
0000e0 95 aa e6 3c 46 2a c8 bd 90 39 08 be 94 ac 49 bd
       0.028157512 -0.09773688 -0.13303208 -0.04923685
0000f0 7e 6f 07 3e b2 71 11 be b8 b8 b3 3d 30 4c bc 3d
       0.13226125 -0.14203528 0.08775467 0.09194219
000100 c1 df ac 3d 80 b5 84 bb b9 a2 a8 be ab 51 3c 3e
       0.08441115 -0.004049957 -0.32936648 0.18390529
000110 f3 10 cc bd eb 29 09 3e ab be 0a 3d c4 6a a8 3d
       -0.0996417 0.13394897 0.03387324 0.08223489
000120 74 71 c6 bc 7c 59 41 3d ba db ef 3d 05 f5 9f be
       -0.02422402 0.04720448 0.117118314 -0.31241623
000130 38 93 97 be e6 04 7c be d0 cf 2d 3d 23 55 e7 3e
       -0.29604506 -0.24611244 0.042434514 0.45182142
000140 8d 30 84 bd 43 c7 aa 3d b5 9a ec be 5d b4 77 3d
       -0.06454573 0.083387874 -0.46211782 0.060474742
000150 a4 28 05 bf 5a 52 65 be 8b b3 7d 3e 9b 04 9b bd
       -0.5201514 -0.22394696 0.24775521 -0.07569238
000160 7b 04 26 3e 85 10 be 3b 85 04 bf 3d e8 9b 1c bd
       0.16212647 0.005800309 0.09327034 -0.03823462
000170 46 18 13 3d 80 0a 46 3d ce a3 ee bd d7 42 f7 3c
       0.03591182 0.048349857 -0.11652337 0.030183239
000180 c3 d2 08 be b8 1b ad be e0 ca 12 be 47 c1 e0 bd
       -0.13361649 -0.3381021 -0.14335203 -0.10974365
000190 79 ef bd bd 08 da 96 be 08 43 26 3e 6d f1 ae bd
       -0.092741914 -0.2946322 0.16236508 -0.08542142
0001a0 0d 2f 11 be 68 db 74 3e ee ab c7 3e d0 16 3f bd
       -0.14178105 0.23911822 0.3899836 -0.046652615
0001b0 7b 6d 02 be 9d 7a 68 be b2 33 88 bd 43 ae 3f be
       -0.12737076 -0.22703023 -0.06650485 -0.1871882
0001c0 f4 57 12 3e ea df 47 bd 02 58 34 3e 14 b0 2b be
       0.14291364 -0.048797525 0.17611697 -0.16766387
0001d0 d7 88 88 be e5 71 15 be ce 06 c1 3d e0 44 a3 bb
       -0.266669 -0.14594229 0.09425126 -0.004982576
0001e0 0c c9 65 be 01 29 87 3e 15 5e 92 be f0 79 27 3d
       -0.22439975 0.2639847 -0.28587404 0.040887773
0001f0 4b d3 4b be 5a db 75 be a1 ab b2 3c 1d 01 b2 bd
       -0.1990482 -0.24009457 0.021810355 -0.086916186
000200 62 07 a2 3d 43 21 cb 3e 0d 1f cb 3e 0d 56 9f bb
       0.079115644 0.39673814 0.39672127 -0.004862553
000210 4d 73 76 bd bc 65 ce 3d 82 24 55 3e 52 df b7 bd
       -0.060168553 0.10077998 0.20814708 -0.08978142
000220 77 ea af 3e 93 5f e6 bd dc 4b c0 bd 7b 28 c3 3c
       0.3435857 -0.11248698 -0.09389469 0.023823014
000230 15 8d 07 3e 15 e2 d1 3c bb 75 d0 3e 4c 4e 2f 3e
       0.13237412 0.0256205 0.4071482 0.17119712
000240 ce 79 4d 3c 41 58 17 3e a2 3a 82 3e 80 b6 fe 3e
       0.0125412475 0.1477976 0.25435358 0.4974861
000250 28 6e 1b 3f d4 dc 21 be 27 0e c1 bc 8e ec 82 bd
       0.6071496 -0.15806895 -0.023566319 -0.063927755
000260 47 45 90 be e3 6b 82 be 61 cd 02 be c6 67 57 bb
       -0.28177854 -0.25472936 -0.12773658 -0.003286825
000270 22 eb 24 bd 8c 9d 03 be 08 e0 92 bd 50 87 03 be
       -0.040263303 -0.12853068 -0.07171637 -0.12844586
000280 8a 45 d9 3c 6c f8 4b be 78 33 b1 be d8 94 53 3e
       0.026522417 -0.19918984 -0.3460958 0.20662248
000290 fa 01 db 3e 47 88 92 bd b8 88 44 3d 46 69 d3 be
       0.42774945 -0.07154899 0.047981948 -0.41291255
0002a0 8f 37 03 3d 41 ae 39 bd b9 24 e9 3d 89 ea 66 bb
       0.032035407 -0.045332197 0.113839574 -0.0035235009
0002b0 c4 8d b8 be 85 01 63 3e 2b e0 ad 3d ed 19 b0 3e
       -0.3604566 0.22168548 0.08490022 0.3439478
0002c0 3d eb 47 be 3a 4c 22 be dc 60 25 bd 84 2c 7b 3c
       -0.1952333 -0.1584939 -0.040375575 0.015330438
0002d0 c4 9a 7b bd 92 98 8f bd 8b 1f e8 3d 61 5d 56 3e
       -0.061426893 -0.07011522 0.11334141 0.20934059
0002e0 b8 e0 44 3d 28 2b 86 bb c2 cd 44 be 5e d1 eb be
       0.04806587 -0.0040945 -0.19219115 -0.46058172
0002f0 37 f1 e3 bd 33 8c be 3e 4b 58 a4 bb d1 88 e4 be
       -0.111299925 0.3721634 -0.005015408 -0.44635633
000300 9d 38 98 bc d3 fa 0c 3e db ba ec 3d a2 1a 47 be
       -0.018581683 0.13767557 0.11559077 -0.19443753
000310 71 66 3d be 53 cf a6 be d9 5a c9 bd 69 ef 1e be
       -0.1849611 -0.3258005 -0.09831781 -0.15521015
000320 ec 24 fc bd e6 db 02 3e 34 83 4e be 1c ef 5b be
       -0.1231173 0.12779197 -0.20167238 -0.21477932
000330 75 c3 e2 3d d4 75 8f 3e 1b f8 c4 3e c3 8f 51 3e
       0.11072437 0.28019583 0.3847054 0.20464997
000340 ed a2 70 be eb be 9c 3d ef b7 9b bd 27 de 84 3e
       -0.23499651 0.07653602 -0.07603442 0.2595074
000350 c5 8f 65 be 44 73 b5 ba b5 26 6c 3e 56 ff fe bd
       -0.22418125 -0.0013843556 0.2306164 -0.12451045
000360 f6 33 9c be 5c c5 30 3d 2c 30 76 3e 53 00 43 be
       -0.30508393 0.043156967 0.24041814 -0.19043092
000370 93 e4 02 be 2a 82 f9 bd ba 0a 91 be c1 f4 d1 3d
       -0.12782507 -0.1218303 -0.28328496 0.10251761
000380 dd ab b4 bd a6 6c c3 be 25 7b 66 be bd 76 e0 bd
       -0.08821843 -0.3816883 -0.22507913 -0.109601475
000390 84 b0 5b 3e a9 bb 1b bf 17 84 cf 3c e9 ad 5e 3e
       0.21454054 -0.6083322 0.02533154 0.21746029
0003a0 1a 1a 7d 3e 76 b4 82 be 1f ca 18 be 4a 32 b7 3c
       0.24716988 -0.25528306 -0.14920853 0.022362847
0003b0 5b ef d4 bd 2d b9 b7 bd 28 35 e1 bc fc 3f fd bd
       -0.10397216 -0.08970866 -0.027491167 -0.1236572
0003c0 95 4a 00 3e a2 f9 53 bc ba 99 27 be 9e 1b 9a 3d
       0.12528451 -0.012937935 -0.16367236 0.07524799
0003d0 84 bd c5 bc e6 ca af bd e8 b9 bf 3b a2 ec ae 3d
       -0.02413822 -0.08583622 0.005851019 0.08541228
0003e0 e4 06 6e 3c 50 24 0e 3e eb 96 91 be e7 f6 8c 3e
       0.01452801 0.1388104 -0.28435454 0.27532122
0003f0 31 35 1a 3e 02 d6 b6 3c 09 c1 ca bd ee b8 c5 3d
       0.15059353 0.022318844 -0.099001 0.09654413

rnn.bias_ih_l1 f4 [512]
000000 94 36 58 be c7 3d ca be 1d bb 94 be cd a5 10 be
       -0.2111457 -0.39500257 -0.29049006 -0.14125748
000010 bc f1 a1 be 4c 64 00 be a4 95 c5 be e0 d4 8f be
       -0.3162974 -0.1253826 -0.3859073 -0.28092098
000020 ac 20 4a be 2b e4 8e be b3 e1 a9 be 04 61 d2 be
       -0.19739026 -0.27908453 -0.33180007 -0.41089642
000030 b3 0f 8d be 93 99 99 be 5a 65 db bd 7a 29 a3 be
       -0.2755104 -0.2999998 -0.10712691 -0.31867582
000040 a4 47 61 be 0d 19 62 be 97 ce d5 be 51 ab 0c be
       -0.21999985 -0.22079869 -0.41759178 -0.13737227
000050 42 9d db be a1 3b 66 be ec f5 b6 be 09 61 a0 be
       -0.42893416 -0.22483684 -0.35734499 -0.31324032
000060 49 90 0b be 14 e7 50 be d9 81 c2 be 2e 34 66 be
       -0.13629259 -0.2040065 -0.3798969 -0.22480842
000070 ab c6 ef be 43 e6 c7 be 10 f9 b8 be 01 dc 9e be
       -0.4683126 -0.39042863 -0.3612752 -0.31027225
000080 c5 97 87 be b6 c0 08 bf ed 28 40 be a7 24 62 bd
       -0.26482978 -0.53419054 -0.18765612 -0.055210736
000090 1a da 68 be 72 fe 08 be 35 c2 9f be 1b fa 72 be
       -0.22739449 -0.13378313 -0.31202856 -0.2372822
0000a0 36 07 b1 be da 1f 06 bf 84 f4 c7 be 93 f6 a2 be
       -0.34575814 -0.5239235 -0.39053738 -0.31828746
0000b0 2f 52 e2 be 87 a7 aa be 8b 81 f6 be b6 b3 94 be
       -0.44203326 -0.33330938 -0.48145708 -0.2904336
0000c0 44 c9 d1 be 0a 0b ca be 43 bc ad be ca 2b 8c be
       -0.40973866 -0.39461547 -0.33932695 -0.27377158
0000d0 85 37 cc bd 4a d4 cc be a4 87 1e bf 1f 84 bb bd
       -0.09971527 -0.40005714 -0.6192572 -0.091560595
0000e0 d1 5d 39 be 43 b1 93 be 6c 17 fe be 3b d3 f9 be
       -0.18102194 -0.28846177 -0.49627244 -0.4879397
0000f0 fc fe b4 be 70 82 b7 be 70 9a 75 be 82 69 9a be
       -0.35350788 -0.35841703 -0.23984694 -0.3015862
000100 45 34 80 be 1f 40 99 be 25 d9 90 be 77 85 2b be
       -0.25039878 -0.29931733 -0.28290668 -0.16750132
000110 c3 fc fe be d2 0c a6 be 00 62 b4 be d0 62 5d be
       -0.49802217 -0.32431656 -0.35231018 -0.21619725
000120 ab af 46 be a0 1e 03 bf f1 42 48 be ca eb d5 be
       -0.1940295 -0.51218605 -0.19556786 -0.41781455
000130 72 42 82 be 72 d6 81 be 71 09 a9 be d3 ed 51 be
       -0.2544132 -0.2535892 -0.33015016 -0.20500879
000140 99 ff 97 be 99 9d cf be 39 e5 db be 98 88 74 be
       -0.29687193 -0.40549925 -0.4294832 -0.23880231
000150 1c 7a b8 be 2e 25 a4 be d6 2e 94 be 1b 71 18 bf
       -0.36030662 -0.32059616 -0.28941983 -0.59547585
000160 54 e3 bb be 0c ce af be c4 18 ae be 67 13 96 be
       -0.36696875 -0.3433689 -0.3400327 -0.29311678
000170 dd c8 b8 be 62 dc dc be ff 5e e3 be 66 62 81 be
       -0.36090747 -0.4313689 -0.44408414 -0.25270385
000180 ad b6 a6 be 6e 16 9c be 33 4f 09 bf 09 bd 88 be
       -0.32561246 -0.30485862 -0.53636473 -0.26706722
000190 06 3b b6 be b8 22 3a be 40 59 1b bd c8 41 cd be
       -0.35591906 -0.18177307 -0.037926912 -0.4008925
0001a0 46 53 91 be 5c 35 e3 be 0d 94 b1 be 2a 74 88 be
       -0.28383845 -0.44376647 -0.34683266 -0.26651126
0001b0 57 09 d5 be f5 6f 99 be 3e b6 b9 bd 0e 4e fa bc
       -0.41608688 -0.2996823 -0.09067963 -0.030554798
0001c0 0b 16 d6 be ca ce 13 bf b0 09 a0 be 69 fe a5 be
       -0.41813692 -0.5773741 -0.3125739 -0.32420662
0001d0 71 6b ef be 97 88 c9 be e2 45 4c be 72 7c d5 bd
       -0.4676166 -0.39362022 -0.19948533 -0.10424127
0001e0 f8 27 e3 bd 34 a5 a9 be 20 49 23 be 1f 5a 3a be
       -0.11091608 -0.33133852 -0.15945864 -0.18198441
0001f0 36 93 1c be be 24 cd be c0 cf 69 be bd f1 a7 bd
       -0.15290532 -0.40067095 -0.22833157 -0.08200405
000200 96 18 bf bd 0a 3e 7c be de 23 d9 be 8e 6c 7d be
       -0.09330861 -0.24633041 -0.42410177 -0.24748442
000210 40 73 b0 be db 7c a9 bd f8 4e 82 be 4a 02 83 bc
       -0.3446293 -0.082757674 -0.25450873 -0.015992302
000220 fa 8f b0 3c 73 cc a0 bc 95 4c 37 be 1e 9a 86 be
       0.021553028 -0.019628739 -0.17900307 -0.26289457
000230 df 6b 93 be 27 d1 06 be 0f bf fc 3b 5c 18 3c bd
       -0.28793237 -0.13165723 0.0077132056 -0.04592167
000240 66 99 28 bc 35 c8 d0 bd ca 1d 87 bd c8 69 81 be
       -0.010290479 -0.101944365 -0.06597479 -0.25276017
000250 bd 3b 02 bd 8f 87 9a bd c6 1c 43 3e 18 94 82 ba
       -0.031795252 -0.07545387 0.19053945 -0.0009962348
000260 de 2f bb bd 00 76 c2 3b 1c 93 1e 3e 2f ee c1 bd
       -0.09139989 0.005934477 0.15485805 -0.09469258
000270 b7 7e 56 3e 8a 5d e4 bd df 81 92 be 8f 10 75 be
       0.20946775 -0.11150654 -0.2861471 -0.23932098
000280 18 c5 64 bd 17 08 98 be 49 0d 39 bd 80 b6 37 bd
       -0.055852026 -0.29693672 -0.045178685 -0.04485178
000290 a3 a6 16 3d 89 03 60 be f1 c1 d5 3d f8 ff 16 3e
       0.03678001 -0.21876349 0.10437382 0.14746082
0002a0 71 1d 9e be 33 b0 3d be 0d 52 16 3e 2a 60 99 bd
       -0.30881837 -0.18524246 0.14679737 -0.07489045
0002b0 e2 61 85 be be e5 91 be e1 bc ac be b6 c7 a2 3c
       -0.2605124 -0.28495592 -0.33737853 0.01987062
0002c0 45 8f 65 be 18 6e 45 be de f1 70 3e 7b 1f 71 3d
       -0.22417934 -0.19280279 0.23529765 0.058867913
0002d0 bb f7 54 3c 9e cb d2 bd 11 f8 c9 be 2b 05 22 3c
       0.012998517 -0.10292743 -0.39447072 0.009888927
0002e0 37 bd d7 bd 82 5d 39 bc de c2 84 be 46 9b 14 be
       -0.10534137 -0.011313798 -0.25929922 -0.14512357
0002f0 55 22 e0 bd 29 b7 8d be 0e 22 1f 3e 96 47 8e 3d
       -0.10944048 -0.27678803 0.15540335 0.06947248
000300 49 7c a6 bd 3e 96 ad bc c2 1e 27 be 25 d5 1b be
       -0.08129174 -0.021189805 -0.16320327 -0.15218027
000310 ee 52 4e be 03 58 57 bc cc 4b ef bc b0 00 34 bd
       -0.20148823 -0.013143542 -0.029210947 -0.04394597
000320 80 d7 28 be 32 5f 99 be b8 3f 83 bd 90 be 15 be
       -0.16488457 -0.2995544 -0.06408638 -0.14623475
000330 20 3a b6 3c e5 c5 a5 3d d8 34 2c be e7 e8 cc 3a
       0.022244513 0.08094386 -0.16817033 0.0015633375
000340 b1 f8 d3 3d 0b 95 95 be 42 91 60 be 63 ec 09 be
       0.103501685 -0.29215273 -0.21930411 -0.1346908
000350 b7 16 60 be 54 5b 93 bd 2a 4f 7b be 7f d7 48 be
       -0.21883665 -0.07195154 -0.24541917 -0.19613455
000360 b9 83 95 bd 34 e8 07 bd 22 a6 73 be b3 d1 1b be
       -0.07300515 -0.03318043 -0.23793843 -0.15216713
000370 9a 5b f3 bd e2 25 66 bb 48 7c a9 be b5 dc 3a bc
       -0.11882706 -0.0035117795 -0.33102632 -0.01140516
000380 50 bb 00 3e 12 bc 46 bd 81 bd 2e bb 64 1e 27 be
       0.12571454 -0.0485192 -0.0026663246 -0.16320187
000390 ba a5 7a be 12 37 c6 bd ea 59 b4 bd f9 eb 58 be
       -0.24477282 -0.096784726 -0.08806212 -0.21183766
0003a0 d8 5b 31 be 97 98 95 be 43 37 18 be 1b 42 5c be
       -0.17320192 -0.2921798 -0.1486483 -0.21509592
0003b0 31 2e 80 bd bc 5a 73 bc 6c 64 2b 3d f4 8d 4f 3d
       -0.0625881 -0.014853176 0.041843817 0.050672486
0003c0 6d dc d5 be 12 b1 5e be b5 ad f8 3c d3 f0 02 3d
       -0.41769734 -0.21747234 0.030356267 0.03196795
0003d0 2c dc 12 bc 20 4a 35 be 31 03 6e 3c 92 c9 e7 bd
       -0.008963626 -0.17704058 0.014527128 -0.11317743
0003e0 7f f4 a7 bd 3f 04 14 be b6 a1 11 bd a7 f0 4a 3e
       -0.08200931 -0.14454745 -0.03555461 0.19818364
0003f0 1e f0 f3 bd 35 9f 5f be 02 52 c5 bc 9e 67 d5 3d
       -0.11911033 -0.21838076 -0.024086956 0.10420154
